node {
  name: "global_step/Initializer/zeros"
  op: "Const"
  attr {
    key: "_class"
    value {
      list {
        s: "loc:@global_step"
      }
    }
  }
  attr {
    key: "_output_shapes"
    value {
      list {
        shape {
        }
      }
    }
  }
  attr {
    key: "dtype"
    value {
      type: DT_INT64
    }
  }
  attr {
    key: "value"
    value {
      tensor {
        dtype: DT_INT64
        tensor_shape {
        }
        int64_val: 0
      }
    }
  }
}
node {
  name: "global_step"
  op: "VariableV2"
  attr {
    key: "_class"
    value {
      list {
        s: "loc:@global_step"
      }
    }
  }
  attr {
    key: "_output_shapes"
    value {
      list {
        shape {
        }
      }
    }
  }
  attr {
    key: "container"
    value {
      s: ""
    }
  }
  attr {
    key: "dtype"
    value {
      type: DT_INT64
    }
  }
  attr {
    key: "shape"
    value {
      shape {
      }
    }
  }
  attr {
    key: "shared_name"
    value {
      s: ""
    }
  }
}
node {
  name: "global_step/Assign"
  op: "Assign"
  input: "global_step"
  input: "global_step/Initializer/zeros"
  attr {
    key: "T"
    value {
      type: DT_INT64
    }
  }
  attr {
    key: "_class"
    value {
      list {
        s: "loc:@global_step"
      }
    }
  }
  attr {
    key: "_output_shapes"
    value {
      list {
        shape {
        }
      }
    }
  }
  attr {
    key: "use_locking"
    value {
      b: true
    }
  }
  attr {
    key: "validate_shape"
    value {
      b: true
    }
  }
}
node {
  name: "global_step/read"
  op: "Identity"
  input: "global_step"
  attr {
    key: "T"
    value {
      type: DT_INT64
    }
  }
  attr {
    key: "_class"
    value {
      list {
        s: "loc:@global_step"
      }
    }
  }
  attr {
    key: "_output_shapes"
    value {
      list {
        shape {
        }
      }
    }
  }
}
node {
  name: "global_step/IsVariableInitialized"
  op: "IsVariableInitialized"
  input: "global_step"
  attr {
    key: "_class"
    value {
      list {
        s: "loc:@global_step"
      }
    }
  }
  attr {
    key: "_output_shapes"
    value {
      list {
        shape {
        }
      }
    }
  }
  attr {
    key: "dtype"
    value {
      type: DT_INT64
    }
  }
}
node {
  name: "global_step/cond/Switch"
  op: "Switch"
  input: "global_step/IsVariableInitialized"
  input: "global_step/IsVariableInitialized"
  attr {
    key: "T"
    value {
      type: DT_BOOL
    }
  }
  attr {
    key: "_output_shapes"
    value {
      list {
        shape {
        }
        shape {
        }
      }
    }
  }
}
node {
  name: "global_step/cond/switch_t"
  op: "Identity"
  input: "global_step/cond/Switch:1"
  attr {
    key: "T"
    value {
      type: DT_BOOL
    }
  }
  attr {
    key: "_output_shapes"
    value {
      list {
        shape {
        }
      }
    }
  }
}
node {
  name: "global_step/cond/switch_f"
  op: "Identity"
  input: "global_step/cond/Switch"
  attr {
    key: "T"
    value {
      type: DT_BOOL
    }
  }
  attr {
    key: "_output_shapes"
    value {
      list {
        shape {
        }
      }
    }
  }
}
node {
  name: "global_step/cond/pred_id"
  op: "Identity"
  input: "global_step/IsVariableInitialized"
  attr {
    key: "T"
    value {
      type: DT_BOOL
    }
  }
  attr {
    key: "_output_shapes"
    value {
      list {
        shape {
        }
      }
    }
  }
}
node {
  name: "global_step/cond/read"
  op: "Identity"
  input: "global_step/cond/read/Switch:1"
  attr {
    key: "T"
    value {
      type: DT_INT64
    }
  }
  attr {
    key: "_output_shapes"
    value {
      list {
        shape {
        }
      }
    }
  }
}
node {
  name: "global_step/cond/read/Switch"
  op: "RefSwitch"
  input: "global_step"
  input: "global_step/cond/pred_id"
  attr {
    key: "T"
    value {
      type: DT_INT64
    }
  }
  attr {
    key: "_class"
    value {
      list {
        s: "loc:@global_step"
      }
    }
  }
  attr {
    key: "_output_shapes"
    value {
      list {
        shape {
        }
        shape {
        }
      }
    }
  }
}
node {
  name: "global_step/cond/Switch_1"
  op: "Switch"
  input: "global_step/Initializer/zeros"
  input: "global_step/cond/pred_id"
  attr {
    key: "T"
    value {
      type: DT_INT64
    }
  }
  attr {
    key: "_class"
    value {
      list {
        s: "loc:@global_step"
      }
    }
  }
  attr {
    key: "_output_shapes"
    value {
      list {
        shape {
        }
        shape {
        }
      }
    }
  }
}
node {
  name: "global_step/cond/Merge"
  op: "Merge"
  input: "global_step/cond/Switch_1"
  input: "global_step/cond/read"
  attr {
    key: "N"
    value {
      i: 2
    }
  }
  attr {
    key: "T"
    value {
      type: DT_INT64
    }
  }
  attr {
    key: "_output_shapes"
    value {
      list {
        shape {
        }
        shape {
        }
      }
    }
  }
}
node {
  name: "global_step/add/y"
  op: "Const"
  attr {
    key: "_output_shapes"
    value {
      list {
        shape {
        }
      }
    }
  }
  attr {
    key: "dtype"
    value {
      type: DT_INT64
    }
  }
  attr {
    key: "value"
    value {
      tensor {
        dtype: DT_INT64
        tensor_shape {
        }
        int64_val: 0
      }
    }
  }
}
node {
  name: "global_step/add"
  op: "Add"
  input: "global_step/cond/Merge"
  input: "global_step/add/y"
  attr {
    key: "T"
    value {
      type: DT_INT64
    }
  }
  attr {
    key: "_output_shapes"
    value {
      list {
        shape {
        }
      }
    }
  }
}
node {
  name: "tensors/component_0"
  op: "Const"
  device: "/device:CPU:0"
  attr {
    key: "_output_shapes"
    value {
      list {
        shape {
        }
      }
    }
  }
  attr {
    key: "dtype"
    value {
      type: DT_INT32
    }
  }
  attr {
    key: "value"
    value {
      tensor {
        dtype: DT_INT32
        tensor_shape {
        }
        int_val: 0
      }
    }
  }
}
node {
  name: "buffer_size"
  op: "Const"
  device: "/device:CPU:0"
  attr {
    key: "_output_shapes"
    value {
      list {
        shape {
        }
      }
    }
  }
  attr {
    key: "dtype"
    value {
      type: DT_INT64
    }
  }
  attr {
    key: "value"
    value {
      tensor {
        dtype: DT_INT64
        tensor_shape {
        }
        int64_val: 320
      }
    }
  }
}
node {
  name: "seed"
  op: "Const"
  device: "/device:CPU:0"
  attr {
    key: "_output_shapes"
    value {
      list {
        shape {
        }
      }
    }
  }
  attr {
    key: "dtype"
    value {
      type: DT_INT64
    }
  }
  attr {
    key: "value"
    value {
      tensor {
        dtype: DT_INT64
        tensor_shape {
        }
        int64_val: 3
      }
    }
  }
}
node {
  name: "seed2/Const"
  op: "Const"
  device: "/device:CPU:0"
  attr {
    key: "_output_shapes"
    value {
      list {
        shape {
        }
      }
    }
  }
  attr {
    key: "dtype"
    value {
      type: DT_INT64
    }
  }
  attr {
    key: "value"
    value {
      tensor {
        dtype: DT_INT64
        tensor_shape {
        }
        int64_val: 3
      }
    }
  }
}
node {
  name: "seed2/Equal/y"
  op: "Const"
  device: "/device:CPU:0"
  attr {
    key: "_output_shapes"
    value {
      list {
        shape {
        }
      }
    }
  }
  attr {
    key: "dtype"
    value {
      type: DT_INT64
    }
  }
  attr {
    key: "value"
    value {
      tensor {
        dtype: DT_INT64
        tensor_shape {
        }
        int64_val: 0
      }
    }
  }
}
node {
  name: "seed2/Equal"
  op: "Equal"
  input: "seed"
  input: "seed2/Equal/y"
  device: "/device:CPU:0"
  attr {
    key: "T"
    value {
      type: DT_INT64
    }
  }
  attr {
    key: "_output_shapes"
    value {
      list {
        shape {
        }
      }
    }
  }
}
node {
  name: "seed2/Equal_1/y"
  op: "Const"
  device: "/device:CPU:0"
  attr {
    key: "_output_shapes"
    value {
      list {
        shape {
        }
      }
    }
  }
  attr {
    key: "dtype"
    value {
      type: DT_INT64
    }
  }
  attr {
    key: "value"
    value {
      tensor {
        dtype: DT_INT64
        tensor_shape {
        }
        int64_val: 0
      }
    }
  }
}
node {
  name: "seed2/Equal_1"
  op: "Equal"
  input: "seed2/Const"
  input: "seed2/Equal_1/y"
  device: "/device:CPU:0"
  attr {
    key: "T"
    value {
      type: DT_INT64
    }
  }
  attr {
    key: "_output_shapes"
    value {
      list {
        shape {
        }
      }
    }
  }
}
node {
  name: "seed2/LogicalAnd"
  op: "LogicalAnd"
  input: "seed2/Equal"
  input: "seed2/Equal_1"
  device: "/device:CPU:0"
  attr {
    key: "_output_shapes"
    value {
      list {
        shape {
        }
      }
    }
  }
}
node {
  name: "seed2/Const_1"
  op: "Const"
  device: "/device:CPU:0"
  attr {
    key: "_output_shapes"
    value {
      list {
        shape {
        }
      }
    }
  }
  attr {
    key: "dtype"
    value {
      type: DT_INT64
    }
  }
  attr {
    key: "value"
    value {
      tensor {
        dtype: DT_INT64
        tensor_shape {
        }
        int64_val: 2147483647
      }
    }
  }
}
node {
  name: "seed2"
  op: "Select"
  input: "seed2/LogicalAnd"
  input: "seed2/Const_1"
  input: "seed2/Const"
  device: "/device:CPU:0"
  attr {
    key: "T"
    value {
      type: DT_INT64
    }
  }
  attr {
    key: "_output_shapes"
    value {
      list {
        shape {
        }
      }
    }
  }
}
node {
  name: "count"
  op: "Const"
  device: "/device:CPU:0"
  attr {
    key: "_output_shapes"
    value {
      list {
        shape {
        }
      }
    }
  }
  attr {
    key: "dtype"
    value {
      type: DT_INT64
    }
  }
  attr {
    key: "value"
    value {
      tensor {
        dtype: DT_INT64
        tensor_shape {
        }
        int64_val: -1
      }
    }
  }
}
node {
  name: "batch_size"
  op: "Const"
  device: "/device:CPU:0"
  attr {
    key: "_output_shapes"
    value {
      list {
        shape {
        }
      }
    }
  }
  attr {
    key: "dtype"
    value {
      type: DT_INT64
    }
  }
  attr {
    key: "value"
    value {
      tensor {
        dtype: DT_INT64
        tensor_shape {
        }
        int64_val: 32
      }
    }
  }
}
node {
  name: "drop_remainder"
  op: "Const"
  device: "/device:CPU:0"
  attr {
    key: "_output_shapes"
    value {
      list {
        shape {
        }
      }
    }
  }
  attr {
    key: "dtype"
    value {
      type: DT_BOOL
    }
  }
  attr {
    key: "value"
    value {
      tensor {
        dtype: DT_BOOL
        tensor_shape {
        }
        bool_val: false
      }
    }
  }
}
node {
  name: "OneShotIterator"
  op: "OneShotIterator"
  device: "/device:CPU:0"
  attr {
    key: "_output_shapes"
    value {
      list {
        shape {
        }
      }
    }
  }
  attr {
    key: "container"
    value {
      s: ""
    }
  }
  attr {
    key: "dataset_factory"
    value {
      func {
        name: "_make_dataset_KR9E5YonATk"
      }
    }
  }
  attr {
    key: "output_shapes"
    value {
      list {
        shape {
          dim {
            size: -1
          }
          dim {
            size: 28
          }
          dim {
            size: 28
          }
          dim {
            size: 1
          }
        }
        shape {
          dim {
            size: -1
          }
        }
      }
    }
  }
  attr {
    key: "output_types"
    value {
      list {
        type: DT_FLOAT
        type: DT_INT32
      }
    }
  }
  attr {
    key: "shared_name"
    value {
      s: ""
    }
  }
}
node {
  name: "IteratorToStringHandle"
  op: "IteratorToStringHandle"
  input: "OneShotIterator"
  device: "/device:CPU:0"
  attr {
    key: "_output_shapes"
    value {
      list {
        shape {
        }
      }
    }
  }
}
node {
  name: "IteratorGetNext"
  op: "IteratorGetNext"
  input: "OneShotIterator"
  device: "/device:CPU:0"
  attr {
    key: "_output_shapes"
    value {
      list {
        shape {
          dim {
            size: -1
          }
          dim {
            size: 28
          }
          dim {
            size: 28
          }
          dim {
            size: 1
          }
        }
        shape {
          dim {
            size: -1
          }
        }
      }
    }
  }
  attr {
    key: "output_shapes"
    value {
      list {
        shape {
          dim {
            size: -1
          }
          dim {
            size: 28
          }
          dim {
            size: 28
          }
          dim {
            size: 1
          }
        }
        shape {
          dim {
            size: -1
          }
        }
      }
    }
  }
  attr {
    key: "output_types"
    value {
      list {
        type: DT_FLOAT
        type: DT_INT32
      }
    }
  }
}
node {
  name: "adanet/iteration_0/step/Initializer/zeros"
  op: "Const"
  attr {
    key: "_class"
    value {
      list {
        s: "loc:@adanet/iteration_0/step"
      }
    }
  }
  attr {
    key: "_output_shapes"
    value {
      list {
        shape {
        }
      }
    }
  }
  attr {
    key: "dtype"
    value {
      type: DT_INT64
    }
  }
  attr {
    key: "value"
    value {
      tensor {
        dtype: DT_INT64
        tensor_shape {
        }
        int64_val: 0
      }
    }
  }
}
node {
  name: "adanet/iteration_0/step"
  op: "VariableV2"
  attr {
    key: "_class"
    value {
      list {
        s: "loc:@adanet/iteration_0/step"
      }
    }
  }
  attr {
    key: "_output_shapes"
    value {
      list {
        shape {
        }
      }
    }
  }
  attr {
    key: "container"
    value {
      s: ""
    }
  }
  attr {
    key: "dtype"
    value {
      type: DT_INT64
    }
  }
  attr {
    key: "shape"
    value {
      shape {
      }
    }
  }
  attr {
    key: "shared_name"
    value {
      s: ""
    }
  }
}
node {
  name: "adanet/iteration_0/step/Assign"
  op: "Assign"
  input: "adanet/iteration_0/step"
  input: "adanet/iteration_0/step/Initializer/zeros"
  attr {
    key: "T"
    value {
      type: DT_INT64
    }
  }
  attr {
    key: "_class"
    value {
      list {
        s: "loc:@adanet/iteration_0/step"
      }
    }
  }
  attr {
    key: "_output_shapes"
    value {
      list {
        shape {
        }
      }
    }
  }
  attr {
    key: "use_locking"
    value {
      b: true
    }
  }
  attr {
    key: "validate_shape"
    value {
      b: true
    }
  }
}
node {
  name: "adanet/iteration_0/step/read"
  op: "Identity"
  input: "adanet/iteration_0/step"
  attr {
    key: "T"
    value {
      type: DT_INT64
    }
  }
  attr {
    key: "_class"
    value {
      list {
        s: "loc:@adanet/iteration_0/step"
      }
    }
  }
  attr {
    key: "_output_shapes"
    value {
      list {
        shape {
        }
      }
    }
  }
}
node {
  name: "adanet/iteration_0/subnetwork_t0_1_layer_dnn/input_layer/images/Shape"
  op: "Shape"
  input: "IteratorGetNext"
  attr {
    key: "T"
    value {
      type: DT_FLOAT
    }
  }
  attr {
    key: "_output_shapes"
    value {
      list {
        shape {
          dim {
            size: 4
          }
        }
      }
    }
  }
  attr {
    key: "out_type"
    value {
      type: DT_INT32
    }
  }
}
node {
  name: "adanet/iteration_0/subnetwork_t0_1_layer_dnn/input_layer/images/strided_slice/stack"
  op: "Const"
  attr {
    key: "_output_shapes"
    value {
      list {
        shape {
          dim {
            size: 1
          }
        }
      }
    }
  }
  attr {
    key: "dtype"
    value {
      type: DT_INT32
    }
  }
  attr {
    key: "value"
    value {
      tensor {
        dtype: DT_INT32
        tensor_shape {
          dim {
            size: 1
          }
        }
        int_val: 0
      }
    }
  }
}
node {
  name: "adanet/iteration_0/subnetwork_t0_1_layer_dnn/input_layer/images/strided_slice/stack_1"
  op: "Const"
  attr {
    key: "_output_shapes"
    value {
      list {
        shape {
          dim {
            size: 1
          }
        }
      }
    }
  }
  attr {
    key: "dtype"
    value {
      type: DT_INT32
    }
  }
  attr {
    key: "value"
    value {
      tensor {
        dtype: DT_INT32
        tensor_shape {
          dim {
            size: 1
          }
        }
        int_val: 1
      }
    }
  }
}
node {
  name: "adanet/iteration_0/subnetwork_t0_1_layer_dnn/input_layer/images/strided_slice/stack_2"
  op: "Const"
  attr {
    key: "_output_shapes"
    value {
      list {
        shape {
          dim {
            size: 1
          }
        }
      }
    }
  }
  attr {
    key: "dtype"
    value {
      type: DT_INT32
    }
  }
  attr {
    key: "value"
    value {
      tensor {
        dtype: DT_INT32
        tensor_shape {
          dim {
            size: 1
          }
        }
        int_val: 1
      }
    }
  }
}
node {
  name: "adanet/iteration_0/subnetwork_t0_1_layer_dnn/input_layer/images/strided_slice"
  op: "StridedSlice"
  input: "adanet/iteration_0/subnetwork_t0_1_layer_dnn/input_layer/images/Shape"
  input: "adanet/iteration_0/subnetwork_t0_1_layer_dnn/input_layer/images/strided_slice/stack"
  input: "adanet/iteration_0/subnetwork_t0_1_layer_dnn/input_layer/images/strided_slice/stack_1"
  input: "adanet/iteration_0/subnetwork_t0_1_layer_dnn/input_layer/images/strided_slice/stack_2"
  attr {
    key: "Index"
    value {
      type: DT_INT32
    }
  }
  attr {
    key: "T"
    value {
      type: DT_INT32
    }
  }
  attr {
    key: "_output_shapes"
    value {
      list {
        shape {
        }
      }
    }
  }
  attr {
    key: "begin_mask"
    value {
      i: 0
    }
  }
  attr {
    key: "ellipsis_mask"
    value {
      i: 0
    }
  }
  attr {
    key: "end_mask"
    value {
      i: 0
    }
  }
  attr {
    key: "new_axis_mask"
    value {
      i: 0
    }
  }
  attr {
    key: "shrink_axis_mask"
    value {
      i: 1
    }
  }
}
node {
  name: "adanet/iteration_0/subnetwork_t0_1_layer_dnn/input_layer/images/Reshape/shape/1"
  op: "Const"
  attr {
    key: "_output_shapes"
    value {
      list {
        shape {
        }
      }
    }
  }
  attr {
    key: "dtype"
    value {
      type: DT_INT32
    }
  }
  attr {
    key: "value"
    value {
      tensor {
        dtype: DT_INT32
        tensor_shape {
        }
        int_val: 784
      }
    }
  }
}
node {
  name: "adanet/iteration_0/subnetwork_t0_1_layer_dnn/input_layer/images/Reshape/shape"
  op: "Pack"
  input: "adanet/iteration_0/subnetwork_t0_1_layer_dnn/input_layer/images/strided_slice"
  input: "adanet/iteration_0/subnetwork_t0_1_layer_dnn/input_layer/images/Reshape/shape/1"
  attr {
    key: "N"
    value {
      i: 2
    }
  }
  attr {
    key: "T"
    value {
      type: DT_INT32
    }
  }
  attr {
    key: "_output_shapes"
    value {
      list {
        shape {
          dim {
            size: 2
          }
        }
      }
    }
  }
  attr {
    key: "axis"
    value {
      i: 0
    }
  }
}
node {
  name: "adanet/iteration_0/subnetwork_t0_1_layer_dnn/input_layer/images/Reshape"
  op: "Reshape"
  input: "IteratorGetNext"
  input: "adanet/iteration_0/subnetwork_t0_1_layer_dnn/input_layer/images/Reshape/shape"
  attr {
    key: "T"
    value {
      type: DT_FLOAT
    }
  }
  attr {
    key: "Tshape"
    value {
      type: DT_INT32
    }
  }
  attr {
    key: "_output_shapes"
    value {
      list {
        shape {
          dim {
            size: -1
          }
          dim {
            size: 784
          }
        }
      }
    }
  }
}
node {
  name: "adanet/iteration_0/subnetwork_t0_1_layer_dnn/input_layer/concat/concat_dim"
  op: "Const"
  attr {
    key: "_output_shapes"
    value {
      list {
        shape {
        }
      }
    }
  }
  attr {
    key: "dtype"
    value {
      type: DT_INT32
    }
  }
  attr {
    key: "value"
    value {
      tensor {
        dtype: DT_INT32
        tensor_shape {
        }
        int_val: 1
      }
    }
  }
}
node {
  name: "adanet/iteration_0/subnetwork_t0_1_layer_dnn/input_layer/concat"
  op: "Identity"
  input: "adanet/iteration_0/subnetwork_t0_1_layer_dnn/input_layer/images/Reshape"
  attr {
    key: "T"
    value {
      type: DT_FLOAT
    }
  }
  attr {
    key: "_output_shapes"
    value {
      list {
        shape {
          dim {
            size: -1
          }
          dim {
            size: 784
          }
        }
      }
    }
  }
}
node {
  name: "adanet/iteration_0/subnetwork_t0_1_layer_dnn/dense/kernel/Initializer/random_uniform/shape"
  op: "Const"
  attr {
    key: "_class"
    value {
      list {
        s: "loc:@adanet/iteration_0/subnetwork_t0_1_layer_dnn/dense/kernel"
      }
    }
  }
  attr {
    key: "_output_shapes"
    value {
      list {
        shape {
          dim {
            size: 2
          }
        }
      }
    }
  }
  attr {
    key: "dtype"
    value {
      type: DT_INT32
    }
  }
  attr {
    key: "value"
    value {
      tensor {
        dtype: DT_INT32
        tensor_shape {
          dim {
            size: 2
          }
        }
        tensor_content: "\020\003\000\000 \000\000\000"
      }
    }
  }
}
node {
  name: "adanet/iteration_0/subnetwork_t0_1_layer_dnn/dense/kernel/Initializer/random_uniform/min"
  op: "Const"
  attr {
    key: "_class"
    value {
      list {
        s: "loc:@adanet/iteration_0/subnetwork_t0_1_layer_dnn/dense/kernel"
      }
    }
  }
  attr {
    key: "_output_shapes"
    value {
      list {
        shape {
        }
      }
    }
  }
  attr {
    key: "dtype"
    value {
      type: DT_FLOAT
    }
  }
  attr {
    key: "value"
    value {
      tensor {
        dtype: DT_FLOAT
        tensor_shape {
        }
        float_val: -0.08574929088354111
      }
    }
  }
}
node {
  name: "adanet/iteration_0/subnetwork_t0_1_layer_dnn/dense/kernel/Initializer/random_uniform/max"
  op: "Const"
  attr {
    key: "_class"
    value {
      list {
        s: "loc:@adanet/iteration_0/subnetwork_t0_1_layer_dnn/dense/kernel"
      }
    }
  }
  attr {
    key: "_output_shapes"
    value {
      list {
        shape {
        }
      }
    }
  }
  attr {
    key: "dtype"
    value {
      type: DT_FLOAT
    }
  }
  attr {
    key: "value"
    value {
      tensor {
        dtype: DT_FLOAT
        tensor_shape {
        }
        float_val: 0.08574929088354111
      }
    }
  }
}
node {
  name: "adanet/iteration_0/subnetwork_t0_1_layer_dnn/dense/kernel/Initializer/random_uniform/RandomUniform"
  op: "RandomUniform"
  input: "adanet/iteration_0/subnetwork_t0_1_layer_dnn/dense/kernel/Initializer/random_uniform/shape"
  attr {
    key: "T"
    value {
      type: DT_INT32
    }
  }
  attr {
    key: "_class"
    value {
      list {
        s: "loc:@adanet/iteration_0/subnetwork_t0_1_layer_dnn/dense/kernel"
      }
    }
  }
  attr {
    key: "_output_shapes"
    value {
      list {
        shape {
          dim {
            size: 784
          }
          dim {
            size: 32
          }
        }
      }
    }
  }
  attr {
    key: "dtype"
    value {
      type: DT_FLOAT
    }
  }
  attr {
    key: "seed"
    value {
      i: 3
    }
  }
  attr {
    key: "seed2"
    value {
      i: 3
    }
  }
}
node {
  name: "adanet/iteration_0/subnetwork_t0_1_layer_dnn/dense/kernel/Initializer/random_uniform/sub"
  op: "Sub"
  input: "adanet/iteration_0/subnetwork_t0_1_layer_dnn/dense/kernel/Initializer/random_uniform/max"
  input: "adanet/iteration_0/subnetwork_t0_1_layer_dnn/dense/kernel/Initializer/random_uniform/min"
  attr {
    key: "T"
    value {
      type: DT_FLOAT
    }
  }
  attr {
    key: "_class"
    value {
      list {
        s: "loc:@adanet/iteration_0/subnetwork_t0_1_layer_dnn/dense/kernel"
      }
    }
  }
  attr {
    key: "_output_shapes"
    value {
      list {
        shape {
        }
      }
    }
  }
}
node {
  name: "adanet/iteration_0/subnetwork_t0_1_layer_dnn/dense/kernel/Initializer/random_uniform/mul"
  op: "Mul"
  input: "adanet/iteration_0/subnetwork_t0_1_layer_dnn/dense/kernel/Initializer/random_uniform/RandomUniform"
  input: "adanet/iteration_0/subnetwork_t0_1_layer_dnn/dense/kernel/Initializer/random_uniform/sub"
  attr {
    key: "T"
    value {
      type: DT_FLOAT
    }
  }
  attr {
    key: "_class"
    value {
      list {
        s: "loc:@adanet/iteration_0/subnetwork_t0_1_layer_dnn/dense/kernel"
      }
    }
  }
  attr {
    key: "_output_shapes"
    value {
      list {
        shape {
          dim {
            size: 784
          }
          dim {
            size: 32
          }
        }
      }
    }
  }
}
node {
  name: "adanet/iteration_0/subnetwork_t0_1_layer_dnn/dense/kernel/Initializer/random_uniform"
  op: "Add"
  input: "adanet/iteration_0/subnetwork_t0_1_layer_dnn/dense/kernel/Initializer/random_uniform/mul"
  input: "adanet/iteration_0/subnetwork_t0_1_layer_dnn/dense/kernel/Initializer/random_uniform/min"
  attr {
    key: "T"
    value {
      type: DT_FLOAT
    }
  }
  attr {
    key: "_class"
    value {
      list {
        s: "loc:@adanet/iteration_0/subnetwork_t0_1_layer_dnn/dense/kernel"
      }
    }
  }
  attr {
    key: "_output_shapes"
    value {
      list {
        shape {
          dim {
            size: 784
          }
          dim {
            size: 32
          }
        }
      }
    }
  }
}
node {
  name: "adanet/iteration_0/subnetwork_t0_1_layer_dnn/dense/kernel"
  op: "VariableV2"
  attr {
    key: "_class"
    value {
      list {
        s: "loc:@adanet/iteration_0/subnetwork_t0_1_layer_dnn/dense/kernel"
      }
    }
  }
  attr {
    key: "_output_shapes"
    value {
      list {
        shape {
          dim {
            size: 784
          }
          dim {
            size: 32
          }
        }
      }
    }
  }
  attr {
    key: "container"
    value {
      s: ""
    }
  }
  attr {
    key: "dtype"
    value {
      type: DT_FLOAT
    }
  }
  attr {
    key: "shape"
    value {
      shape {
        dim {
          size: 784
        }
        dim {
          size: 32
        }
      }
    }
  }
  attr {
    key: "shared_name"
    value {
      s: ""
    }
  }
}
node {
  name: "adanet/iteration_0/subnetwork_t0_1_layer_dnn/dense/kernel/Assign"
  op: "Assign"
  input: "adanet/iteration_0/subnetwork_t0_1_layer_dnn/dense/kernel"
  input: "adanet/iteration_0/subnetwork_t0_1_layer_dnn/dense/kernel/Initializer/random_uniform"
  attr {
    key: "T"
    value {
      type: DT_FLOAT
    }
  }
  attr {
    key: "_class"
    value {
      list {
        s: "loc:@adanet/iteration_0/subnetwork_t0_1_layer_dnn/dense/kernel"
      }
    }
  }
  attr {
    key: "_output_shapes"
    value {
      list {
        shape {
          dim {
            size: 784
          }
          dim {
            size: 32
          }
        }
      }
    }
  }
  attr {
    key: "use_locking"
    value {
      b: true
    }
  }
  attr {
    key: "validate_shape"
    value {
      b: true
    }
  }
}
node {
  name: "adanet/iteration_0/subnetwork_t0_1_layer_dnn/dense/kernel/read"
  op: "Identity"
  input: "adanet/iteration_0/subnetwork_t0_1_layer_dnn/dense/kernel"
  attr {
    key: "T"
    value {
      type: DT_FLOAT
    }
  }
  attr {
    key: "_class"
    value {
      list {
        s: "loc:@adanet/iteration_0/subnetwork_t0_1_layer_dnn/dense/kernel"
      }
    }
  }
  attr {
    key: "_output_shapes"
    value {
      list {
        shape {
          dim {
            size: 784
          }
          dim {
            size: 32
          }
        }
      }
    }
  }
}
node {
  name: "adanet/iteration_0/subnetwork_t0_1_layer_dnn/dense/bias/Initializer/zeros"
  op: "Const"
  attr {
    key: "_class"
    value {
      list {
        s: "loc:@adanet/iteration_0/subnetwork_t0_1_layer_dnn/dense/bias"
      }
    }
  }
  attr {
    key: "_output_shapes"
    value {
      list {
        shape {
          dim {
            size: 32
          }
        }
      }
    }
  }
  attr {
    key: "dtype"
    value {
      type: DT_FLOAT
    }
  }
  attr {
    key: "value"
    value {
      tensor {
        dtype: DT_FLOAT
        tensor_shape {
          dim {
            size: 32
          }
        }
        float_val: 0.0
      }
    }
  }
}
node {
  name: "adanet/iteration_0/subnetwork_t0_1_layer_dnn/dense/bias"
  op: "VariableV2"
  attr {
    key: "_class"
    value {
      list {
        s: "loc:@adanet/iteration_0/subnetwork_t0_1_layer_dnn/dense/bias"
      }
    }
  }
  attr {
    key: "_output_shapes"
    value {
      list {
        shape {
          dim {
            size: 32
          }
        }
      }
    }
  }
  attr {
    key: "container"
    value {
      s: ""
    }
  }
  attr {
    key: "dtype"
    value {
      type: DT_FLOAT
    }
  }
  attr {
    key: "shape"
    value {
      shape {
        dim {
          size: 32
        }
      }
    }
  }
  attr {
    key: "shared_name"
    value {
      s: ""
    }
  }
}
node {
  name: "adanet/iteration_0/subnetwork_t0_1_layer_dnn/dense/bias/Assign"
  op: "Assign"
  input: "adanet/iteration_0/subnetwork_t0_1_layer_dnn/dense/bias"
  input: "adanet/iteration_0/subnetwork_t0_1_layer_dnn/dense/bias/Initializer/zeros"
  attr {
    key: "T"
    value {
      type: DT_FLOAT
    }
  }
  attr {
    key: "_class"
    value {
      list {
        s: "loc:@adanet/iteration_0/subnetwork_t0_1_layer_dnn/dense/bias"
      }
    }
  }
  attr {
    key: "_output_shapes"
    value {
      list {
        shape {
          dim {
            size: 32
          }
        }
      }
    }
  }
  attr {
    key: "use_locking"
    value {
      b: true
    }
  }
  attr {
    key: "validate_shape"
    value {
      b: true
    }
  }
}
node {
  name: "adanet/iteration_0/subnetwork_t0_1_layer_dnn/dense/bias/read"
  op: "Identity"
  input: "adanet/iteration_0/subnetwork_t0_1_layer_dnn/dense/bias"
  attr {
    key: "T"
    value {
      type: DT_FLOAT
    }
  }
  attr {
    key: "_class"
    value {
      list {
        s: "loc:@adanet/iteration_0/subnetwork_t0_1_layer_dnn/dense/bias"
      }
    }
  }
  attr {
    key: "_output_shapes"
    value {
      list {
        shape {
          dim {
            size: 32
          }
        }
      }
    }
  }
}
node {
  name: "adanet/iteration_0/subnetwork_t0_1_layer_dnn/dense/MatMul"
  op: "MatMul"
  input: "adanet/iteration_0/subnetwork_t0_1_layer_dnn/input_layer/concat"
  input: "adanet/iteration_0/subnetwork_t0_1_layer_dnn/dense/kernel/read"
  attr {
    key: "T"
    value {
      type: DT_FLOAT
    }
  }
  attr {
    key: "_output_shapes"
    value {
      list {
        shape {
          dim {
            size: -1
          }
          dim {
            size: 32
          }
        }
      }
    }
  }
  attr {
    key: "transpose_a"
    value {
      b: false
    }
  }
  attr {
    key: "transpose_b"
    value {
      b: false
    }
  }
}
node {
  name: "adanet/iteration_0/subnetwork_t0_1_layer_dnn/dense/BiasAdd"
  op: "BiasAdd"
  input: "adanet/iteration_0/subnetwork_t0_1_layer_dnn/dense/MatMul"
  input: "adanet/iteration_0/subnetwork_t0_1_layer_dnn/dense/bias/read"
  attr {
    key: "T"
    value {
      type: DT_FLOAT
    }
  }
  attr {
    key: "_output_shapes"
    value {
      list {
        shape {
          dim {
            size: -1
          }
          dim {
            size: 32
          }
        }
      }
    }
  }
  attr {
    key: "data_format"
    value {
      s: "NHWC"
    }
  }
}
node {
  name: "adanet/iteration_0/subnetwork_t0_1_layer_dnn/dense/Relu"
  op: "Relu"
  input: "adanet/iteration_0/subnetwork_t0_1_layer_dnn/dense/BiasAdd"
  attr {
    key: "T"
    value {
      type: DT_FLOAT
    }
  }
  attr {
    key: "_output_shapes"
    value {
      list {
        shape {
          dim {
            size: -1
          }
          dim {
            size: 32
          }
        }
      }
    }
  }
}
node {
  name: "adanet/iteration_0/subnetwork_t0_1_layer_dnn/dropout/Identity"
  op: "Identity"
  input: "adanet/iteration_0/subnetwork_t0_1_layer_dnn/dense/Relu"
  attr {
    key: "T"
    value {
      type: DT_FLOAT
    }
  }
  attr {
    key: "_output_shapes"
    value {
      list {
        shape {
          dim {
            size: -1
          }
          dim {
            size: 32
          }
        }
      }
    }
  }
}
node {
  name: "adanet/iteration_0/subnetwork_t0_1_layer_dnn/dense_1/kernel/Initializer/random_uniform/shape"
  op: "Const"
  attr {
    key: "_class"
    value {
      list {
        s: "loc:@adanet/iteration_0/subnetwork_t0_1_layer_dnn/dense_1/kernel"
      }
    }
  }
  attr {
    key: "_output_shapes"
    value {
      list {
        shape {
          dim {
            size: 2
          }
        }
      }
    }
  }
  attr {
    key: "dtype"
    value {
      type: DT_INT32
    }
  }
  attr {
    key: "value"
    value {
      tensor {
        dtype: DT_INT32
        tensor_shape {
          dim {
            size: 2
          }
        }
        tensor_content: " \000\000\000\n\000\000\000"
      }
    }
  }
}
node {
  name: "adanet/iteration_0/subnetwork_t0_1_layer_dnn/dense_1/kernel/Initializer/random_uniform/min"
  op: "Const"
  attr {
    key: "_class"
    value {
      list {
        s: "loc:@adanet/iteration_0/subnetwork_t0_1_layer_dnn/dense_1/kernel"
      }
    }
  }
  attr {
    key: "_output_shapes"
    value {
      list {
        shape {
        }
      }
    }
  }
  attr {
    key: "dtype"
    value {
      type: DT_FLOAT
    }
  }
  attr {
    key: "value"
    value {
      tensor {
        dtype: DT_FLOAT
        tensor_shape {
        }
        float_val: -0.37796446681022644
      }
    }
  }
}
node {
  name: "adanet/iteration_0/subnetwork_t0_1_layer_dnn/dense_1/kernel/Initializer/random_uniform/max"
  op: "Const"
  attr {
    key: "_class"
    value {
      list {
        s: "loc:@adanet/iteration_0/subnetwork_t0_1_layer_dnn/dense_1/kernel"
      }
    }
  }
  attr {
    key: "_output_shapes"
    value {
      list {
        shape {
        }
      }
    }
  }
  attr {
    key: "dtype"
    value {
      type: DT_FLOAT
    }
  }
  attr {
    key: "value"
    value {
      tensor {
        dtype: DT_FLOAT
        tensor_shape {
        }
        float_val: 0.37796446681022644
      }
    }
  }
}
node {
  name: "adanet/iteration_0/subnetwork_t0_1_layer_dnn/dense_1/kernel/Initializer/random_uniform/RandomUniform"
  op: "RandomUniform"
  input: "adanet/iteration_0/subnetwork_t0_1_layer_dnn/dense_1/kernel/Initializer/random_uniform/shape"
  attr {
    key: "T"
    value {
      type: DT_INT32
    }
  }
  attr {
    key: "_class"
    value {
      list {
        s: "loc:@adanet/iteration_0/subnetwork_t0_1_layer_dnn/dense_1/kernel"
      }
    }
  }
  attr {
    key: "_output_shapes"
    value {
      list {
        shape {
          dim {
            size: 32
          }
          dim {
            size: 10
          }
        }
      }
    }
  }
  attr {
    key: "dtype"
    value {
      type: DT_FLOAT
    }
  }
  attr {
    key: "seed"
    value {
      i: 3
    }
  }
  attr {
    key: "seed2"
    value {
      i: 3
    }
  }
}
node {
  name: "adanet/iteration_0/subnetwork_t0_1_layer_dnn/dense_1/kernel/Initializer/random_uniform/sub"
  op: "Sub"
  input: "adanet/iteration_0/subnetwork_t0_1_layer_dnn/dense_1/kernel/Initializer/random_uniform/max"
  input: "adanet/iteration_0/subnetwork_t0_1_layer_dnn/dense_1/kernel/Initializer/random_uniform/min"
  attr {
    key: "T"
    value {
      type: DT_FLOAT
    }
  }
  attr {
    key: "_class"
    value {
      list {
        s: "loc:@adanet/iteration_0/subnetwork_t0_1_layer_dnn/dense_1/kernel"
      }
    }
  }
  attr {
    key: "_output_shapes"
    value {
      list {
        shape {
        }
      }
    }
  }
}
node {
  name: "adanet/iteration_0/subnetwork_t0_1_layer_dnn/dense_1/kernel/Initializer/random_uniform/mul"
  op: "Mul"
  input: "adanet/iteration_0/subnetwork_t0_1_layer_dnn/dense_1/kernel/Initializer/random_uniform/RandomUniform"
  input: "adanet/iteration_0/subnetwork_t0_1_layer_dnn/dense_1/kernel/Initializer/random_uniform/sub"
  attr {
    key: "T"
    value {
      type: DT_FLOAT
    }
  }
  attr {
    key: "_class"
    value {
      list {
        s: "loc:@adanet/iteration_0/subnetwork_t0_1_layer_dnn/dense_1/kernel"
      }
    }
  }
  attr {
    key: "_output_shapes"
    value {
      list {
        shape {
          dim {
            size: 32
          }
          dim {
            size: 10
          }
        }
      }
    }
  }
}
node {
  name: "adanet/iteration_0/subnetwork_t0_1_layer_dnn/dense_1/kernel/Initializer/random_uniform"
  op: "Add"
  input: "adanet/iteration_0/subnetwork_t0_1_layer_dnn/dense_1/kernel/Initializer/random_uniform/mul"
  input: "adanet/iteration_0/subnetwork_t0_1_layer_dnn/dense_1/kernel/Initializer/random_uniform/min"
  attr {
    key: "T"
    value {
      type: DT_FLOAT
    }
  }
  attr {
    key: "_class"
    value {
      list {
        s: "loc:@adanet/iteration_0/subnetwork_t0_1_layer_dnn/dense_1/kernel"
      }
    }
  }
  attr {
    key: "_output_shapes"
    value {
      list {
        shape {
          dim {
            size: 32
          }
          dim {
            size: 10
          }
        }
      }
    }
  }
}
node {
  name: "adanet/iteration_0/subnetwork_t0_1_layer_dnn/dense_1/kernel"
  op: "VariableV2"
  attr {
    key: "_class"
    value {
      list {
        s: "loc:@adanet/iteration_0/subnetwork_t0_1_layer_dnn/dense_1/kernel"
      }
    }
  }
  attr {
    key: "_output_shapes"
    value {
      list {
        shape {
          dim {
            size: 32
          }
          dim {
            size: 10
          }
        }
      }
    }
  }
  attr {
    key: "container"
    value {
      s: ""
    }
  }
  attr {
    key: "dtype"
    value {
      type: DT_FLOAT
    }
  }
  attr {
    key: "shape"
    value {
      shape {
        dim {
          size: 32
        }
        dim {
          size: 10
        }
      }
    }
  }
  attr {
    key: "shared_name"
    value {
      s: ""
    }
  }
}
node {
  name: "adanet/iteration_0/subnetwork_t0_1_layer_dnn/dense_1/kernel/Assign"
  op: "Assign"
  input: "adanet/iteration_0/subnetwork_t0_1_layer_dnn/dense_1/kernel"
  input: "adanet/iteration_0/subnetwork_t0_1_layer_dnn/dense_1/kernel/Initializer/random_uniform"
  attr {
    key: "T"
    value {
      type: DT_FLOAT
    }
  }
  attr {
    key: "_class"
    value {
      list {
        s: "loc:@adanet/iteration_0/subnetwork_t0_1_layer_dnn/dense_1/kernel"
      }
    }
  }
  attr {
    key: "_output_shapes"
    value {
      list {
        shape {
          dim {
            size: 32
          }
          dim {
            size: 10
          }
        }
      }
    }
  }
  attr {
    key: "use_locking"
    value {
      b: true
    }
  }
  attr {
    key: "validate_shape"
    value {
      b: true
    }
  }
}
node {
  name: "adanet/iteration_0/subnetwork_t0_1_layer_dnn/dense_1/kernel/read"
  op: "Identity"
  input: "adanet/iteration_0/subnetwork_t0_1_layer_dnn/dense_1/kernel"
  attr {
    key: "T"
    value {
      type: DT_FLOAT
    }
  }
  attr {
    key: "_class"
    value {
      list {
        s: "loc:@adanet/iteration_0/subnetwork_t0_1_layer_dnn/dense_1/kernel"
      }
    }
  }
  attr {
    key: "_output_shapes"
    value {
      list {
        shape {
          dim {
            size: 32
          }
          dim {
            size: 10
          }
        }
      }
    }
  }
}
node {
  name: "adanet/iteration_0/subnetwork_t0_1_layer_dnn/dense_1/bias/Initializer/zeros"
  op: "Const"
  attr {
    key: "_class"
    value {
      list {
        s: "loc:@adanet/iteration_0/subnetwork_t0_1_layer_dnn/dense_1/bias"
      }
    }
  }
  attr {
    key: "_output_shapes"
    value {
      list {
        shape {
          dim {
            size: 10
          }
        }
      }
    }
  }
  attr {
    key: "dtype"
    value {
      type: DT_FLOAT
    }
  }
  attr {
    key: "value"
    value {
      tensor {
        dtype: DT_FLOAT
        tensor_shape {
          dim {
            size: 10
          }
        }
        float_val: 0.0
      }
    }
  }
}
node {
  name: "adanet/iteration_0/subnetwork_t0_1_layer_dnn/dense_1/bias"
  op: "VariableV2"
  attr {
    key: "_class"
    value {
      list {
        s: "loc:@adanet/iteration_0/subnetwork_t0_1_layer_dnn/dense_1/bias"
      }
    }
  }
  attr {
    key: "_output_shapes"
    value {
      list {
        shape {
          dim {
            size: 10
          }
        }
      }
    }
  }
  attr {
    key: "container"
    value {
      s: ""
    }
  }
  attr {
    key: "dtype"
    value {
      type: DT_FLOAT
    }
  }
  attr {
    key: "shape"
    value {
      shape {
        dim {
          size: 10
        }
      }
    }
  }
  attr {
    key: "shared_name"
    value {
      s: ""
    }
  }
}
node {
  name: "adanet/iteration_0/subnetwork_t0_1_layer_dnn/dense_1/bias/Assign"
  op: "Assign"
  input: "adanet/iteration_0/subnetwork_t0_1_layer_dnn/dense_1/bias"
  input: "adanet/iteration_0/subnetwork_t0_1_layer_dnn/dense_1/bias/Initializer/zeros"
  attr {
    key: "T"
    value {
      type: DT_FLOAT
    }
  }
  attr {
    key: "_class"
    value {
      list {
        s: "loc:@adanet/iteration_0/subnetwork_t0_1_layer_dnn/dense_1/bias"
      }
    }
  }
  attr {
    key: "_output_shapes"
    value {
      list {
        shape {
          dim {
            size: 10
          }
        }
      }
    }
  }
  attr {
    key: "use_locking"
    value {
      b: true
    }
  }
  attr {
    key: "validate_shape"
    value {
      b: true
    }
  }
}
node {
  name: "adanet/iteration_0/subnetwork_t0_1_layer_dnn/dense_1/bias/read"
  op: "Identity"
  input: "adanet/iteration_0/subnetwork_t0_1_layer_dnn/dense_1/bias"
  attr {
    key: "T"
    value {
      type: DT_FLOAT
    }
  }
  attr {
    key: "_class"
    value {
      list {
        s: "loc:@adanet/iteration_0/subnetwork_t0_1_layer_dnn/dense_1/bias"
      }
    }
  }
  attr {
    key: "_output_shapes"
    value {
      list {
        shape {
          dim {
            size: 10
          }
        }
      }
    }
  }
}
node {
  name: "adanet/iteration_0/subnetwork_t0_1_layer_dnn/dense_1/MatMul"
  op: "MatMul"
  input: "adanet/iteration_0/subnetwork_t0_1_layer_dnn/dropout/Identity"
  input: "adanet/iteration_0/subnetwork_t0_1_layer_dnn/dense_1/kernel/read"
  attr {
    key: "T"
    value {
      type: DT_FLOAT
    }
  }
  attr {
    key: "_output_shapes"
    value {
      list {
        shape {
          dim {
            size: -1
          }
          dim {
            size: 10
          }
        }
      }
    }
  }
  attr {
    key: "transpose_a"
    value {
      b: false
    }
  }
  attr {
    key: "transpose_b"
    value {
      b: false
    }
  }
}
node {
  name: "adanet/iteration_0/subnetwork_t0_1_layer_dnn/dense_1/BiasAdd"
  op: "BiasAdd"
  input: "adanet/iteration_0/subnetwork_t0_1_layer_dnn/dense_1/MatMul"
  input: "adanet/iteration_0/subnetwork_t0_1_layer_dnn/dense_1/bias/read"
  attr {
    key: "T"
    value {
      type: DT_FLOAT
    }
  }
  attr {
    key: "_output_shapes"
    value {
      list {
        shape {
          dim {
            size: -1
          }
          dim {
            size: 10
          }
        }
      }
    }
  }
  attr {
    key: "data_format"
    value {
      s: "NHWC"
    }
  }
}
node {
  name: "adanet/iteration_0/subnetwork_t0_1_layer_dnn/ToFloat/x"
  op: "Const"
  attr {
    key: "_output_shapes"
    value {
      list {
        shape {
        }
      }
    }
  }
  attr {
    key: "dtype"
    value {
      type: DT_INT32
    }
  }
  attr {
    key: "value"
    value {
      tensor {
        dtype: DT_INT32
        tensor_shape {
        }
        int_val: 1
      }
    }
  }
}
node {
  name: "adanet/iteration_0/subnetwork_t0_1_layer_dnn/ToFloat"
  op: "Cast"
  input: "adanet/iteration_0/subnetwork_t0_1_layer_dnn/ToFloat/x"
  attr {
    key: "DstT"
    value {
      type: DT_FLOAT
    }
  }
  attr {
    key: "SrcT"
    value {
      type: DT_INT32
    }
  }
  attr {
    key: "Truncate"
    value {
      b: false
    }
  }
  attr {
    key: "_output_shapes"
    value {
      list {
        shape {
        }
      }
    }
  }
}
node {
  name: "adanet/iteration_0/subnetwork_t0_1_layer_dnn/Sqrt"
  op: "Sqrt"
  input: "adanet/iteration_0/subnetwork_t0_1_layer_dnn/ToFloat"
  attr {
    key: "T"
    value {
      type: DT_FLOAT
    }
  }
  attr {
    key: "_output_shapes"
    value {
      list {
        shape {
        }
      }
    }
  }
}
node {
  name: "Const"
  op: "Const"
  attr {
    key: "_output_shapes"
    value {
      list {
        shape {
        }
      }
    }
  }
  attr {
    key: "dtype"
    value {
      type: DT_STRING
    }
  }
  attr {
    key: "value"
    value {
      tensor {
        dtype: DT_STRING
        tensor_shape {
        }
        string_val: ""
      }
    }
  }
}
node {
  name: "Const_1"
  op: "Const"
  attr {
    key: "_output_shapes"
    value {
      list {
        shape {
        }
      }
    }
  }
  attr {
    key: "dtype"
    value {
      type: DT_STRING
    }
  }
  attr {
    key: "value"
    value {
      tensor {
        dtype: DT_STRING
        tensor_shape {
        }
        string_val: ""
      }
    }
  }
}
node {
  name: "adanet/iteration_0/subnetwork_t0_1_layer_dnn/Const"
  op: "Const"
  attr {
    key: "_output_shapes"
    value {
      list {
        shape {
        }
      }
    }
  }
  attr {
    key: "dtype"
    value {
      type: DT_INT32
    }
  }
  attr {
    key: "value"
    value {
      tensor {
        dtype: DT_INT32
        tensor_shape {
        }
        int_val: 1
      }
    }
  }
}
node {
  name: "adanet/iteration_0/subnetwork_t0_1_layer_dnn/head/logits/Shape"
  op: "Shape"
  input: "adanet/iteration_0/subnetwork_t0_1_layer_dnn/dense_1/BiasAdd"
  attr {
    key: "T"
    value {
      type: DT_FLOAT
    }
  }
  attr {
    key: "_output_shapes"
    value {
      list {
        shape {
          dim {
            size: 2
          }
        }
      }
    }
  }
  attr {
    key: "out_type"
    value {
      type: DT_INT32
    }
  }
}
node {
  name: "adanet/iteration_0/subnetwork_t0_1_layer_dnn/head/logits/assert_rank_at_least/rank"
  op: "Const"
  attr {
    key: "_output_shapes"
    value {
      list {
        shape {
        }
      }
    }
  }
  attr {
    key: "dtype"
    value {
      type: DT_INT32
    }
  }
  attr {
    key: "value"
    value {
      tensor {
        dtype: DT_INT32
        tensor_shape {
        }
        int_val: 2
      }
    }
  }
}
node {
  name: "adanet/iteration_0/subnetwork_t0_1_layer_dnn/head/logits/assert_rank_at_least/assert_type/statically_determined_correct_type"
  op: "NoOp"
}
node {
  name: "adanet/iteration_0/subnetwork_t0_1_layer_dnn/head/logits/assert_rank_at_least/static_checks_determined_all_ok"
  op: "NoOp"
}
node {
  name: "adanet/iteration_0/subnetwork_t0_1_layer_dnn/head/predictions/class_ids/dimension"
  op: "Const"
  attr {
    key: "_output_shapes"
    value {
      list {
        shape {
        }
      }
    }
  }
  attr {
    key: "dtype"
    value {
      type: DT_INT32
    }
  }
  attr {
    key: "value"
    value {
      tensor {
        dtype: DT_INT32
        tensor_shape {
        }
        int_val: -1
      }
    }
  }
}
node {
  name: "adanet/iteration_0/subnetwork_t0_1_layer_dnn/head/predictions/class_ids"
  op: "ArgMax"
  input: "adanet/iteration_0/subnetwork_t0_1_layer_dnn/dense_1/BiasAdd"
  input: "adanet/iteration_0/subnetwork_t0_1_layer_dnn/head/predictions/class_ids/dimension"
  attr {
    key: "T"
    value {
      type: DT_FLOAT
    }
  }
  attr {
    key: "Tidx"
    value {
      type: DT_INT32
    }
  }
  attr {
    key: "_output_shapes"
    value {
      list {
        shape {
          dim {
            size: -1
          }
        }
      }
    }
  }
  attr {
    key: "output_type"
    value {
      type: DT_INT64
    }
  }
}
node {
  name: "adanet/iteration_0/subnetwork_t0_1_layer_dnn/head/predictions/ExpandDims/dim"
  op: "Const"
  attr {
    key: "_output_shapes"
    value {
      list {
        shape {
        }
      }
    }
  }
  attr {
    key: "dtype"
    value {
      type: DT_INT32
    }
  }
  attr {
    key: "value"
    value {
      tensor {
        dtype: DT_INT32
        tensor_shape {
        }
        int_val: -1
      }
    }
  }
}
node {
  name: "adanet/iteration_0/subnetwork_t0_1_layer_dnn/head/predictions/ExpandDims"
  op: "ExpandDims"
  input: "adanet/iteration_0/subnetwork_t0_1_layer_dnn/head/predictions/class_ids"
  input: "adanet/iteration_0/subnetwork_t0_1_layer_dnn/head/predictions/ExpandDims/dim"
  attr {
    key: "T"
    value {
      type: DT_INT64
    }
  }
  attr {
    key: "Tdim"
    value {
      type: DT_INT32
    }
  }
  attr {
    key: "_output_shapes"
    value {
      list {
        shape {
          dim {
            size: -1
          }
          dim {
            size: 1
          }
        }
      }
    }
  }
}
node {
  name: "adanet/iteration_0/subnetwork_t0_1_layer_dnn/head/predictions/str_classes"
  op: "AsString"
  input: "adanet/iteration_0/subnetwork_t0_1_layer_dnn/head/predictions/ExpandDims"
  attr {
    key: "T"
    value {
      type: DT_INT64
    }
  }
  attr {
    key: "_output_shapes"
    value {
      list {
        shape {
          dim {
            size: -1
          }
          dim {
            size: 1
          }
        }
      }
    }
  }
  attr {
    key: "fill"
    value {
      s: ""
    }
  }
  attr {
    key: "precision"
    value {
      i: -1
    }
  }
  attr {
    key: "scientific"
    value {
      b: false
    }
  }
  attr {
    key: "shortest"
    value {
      b: false
    }
  }
  attr {
    key: "width"
    value {
      i: -1
    }
  }
}
node {
  name: "adanet/iteration_0/subnetwork_t0_1_layer_dnn/head/predictions/probabilities"
  op: "Softmax"
  input: "adanet/iteration_0/subnetwork_t0_1_layer_dnn/dense_1/BiasAdd"
  attr {
    key: "T"
    value {
      type: DT_FLOAT
    }
  }
  attr {
    key: "_output_shapes"
    value {
      list {
        shape {
          dim {
            size: -1
          }
          dim {
            size: 10
          }
        }
      }
    }
  }
}
node {
  name: "adanet/iteration_0/subnetwork_t0_1_layer_dnn/head/labels/ExpandDims/dim"
  op: "Const"
  attr {
    key: "_output_shapes"
    value {
      list {
        shape {
        }
      }
    }
  }
  attr {
    key: "dtype"
    value {
      type: DT_INT32
    }
  }
  attr {
    key: "value"
    value {
      tensor {
        dtype: DT_INT32
        tensor_shape {
        }
        int_val: -1
      }
    }
  }
}
node {
  name: "adanet/iteration_0/subnetwork_t0_1_layer_dnn/head/labels/ExpandDims"
  op: "ExpandDims"
  input: "IteratorGetNext:1"
  input: "adanet/iteration_0/subnetwork_t0_1_layer_dnn/head/labels/ExpandDims/dim"
  attr {
    key: "T"
    value {
      type: DT_INT32
    }
  }
  attr {
    key: "Tdim"
    value {
      type: DT_INT32
    }
  }
  attr {
    key: "_output_shapes"
    value {
      list {
        shape {
          dim {
            size: -1
          }
          dim {
            size: 1
          }
        }
      }
    }
  }
}
node {
  name: "adanet/iteration_0/subnetwork_t0_1_layer_dnn/head/labels/Shape"
  op: "Shape"
  input: "adanet/iteration_0/subnetwork_t0_1_layer_dnn/head/labels/ExpandDims"
  attr {
    key: "T"
    value {
      type: DT_INT32
    }
  }
  attr {
    key: "_output_shapes"
    value {
      list {
        shape {
          dim {
            size: 2
          }
        }
      }
    }
  }
  attr {
    key: "out_type"
    value {
      type: DT_INT32
    }
  }
}
node {
  name: "adanet/iteration_0/subnetwork_t0_1_layer_dnn/head/labels/Shape_1"
  op: "Shape"
  input: "adanet/iteration_0/subnetwork_t0_1_layer_dnn/dense_1/BiasAdd"
  attr {
    key: "T"
    value {
      type: DT_FLOAT
    }
  }
  attr {
    key: "_output_shapes"
    value {
      list {
        shape {
          dim {
            size: 2
          }
        }
      }
    }
  }
  attr {
    key: "out_type"
    value {
      type: DT_INT32
    }
  }
}
node {
  name: "adanet/iteration_0/subnetwork_t0_1_layer_dnn/head/labels/assert_rank_at_least/rank"
  op: "Const"
  attr {
    key: "_output_shapes"
    value {
      list {
        shape {
        }
      }
    }
  }
  attr {
    key: "dtype"
    value {
      type: DT_INT32
    }
  }
  attr {
    key: "value"
    value {
      tensor {
        dtype: DT_INT32
        tensor_shape {
        }
        int_val: 2
      }
    }
  }
}
node {
  name: "adanet/iteration_0/subnetwork_t0_1_layer_dnn/head/labels/assert_rank_at_least/Shape"
  op: "Shape"
  input: "adanet/iteration_0/subnetwork_t0_1_layer_dnn/head/labels/ExpandDims"
  attr {
    key: "T"
    value {
      type: DT_INT32
    }
  }
  attr {
    key: "_output_shapes"
    value {
      list {
        shape {
          dim {
            size: 2
          }
        }
      }
    }
  }
  attr {
    key: "out_type"
    value {
      type: DT_INT32
    }
  }
}
node {
  name: "adanet/iteration_0/subnetwork_t0_1_layer_dnn/head/labels/assert_rank_at_least/assert_type/statically_determined_correct_type"
  op: "NoOp"
}
node {
  name: "adanet/iteration_0/subnetwork_t0_1_layer_dnn/head/labels/assert_rank_at_least/static_checks_determined_all_ok"
  op: "NoOp"
}
node {
  name: "adanet/iteration_0/subnetwork_t0_1_layer_dnn/head/labels/strided_slice/stack"
  op: "Const"
  input: "^adanet/iteration_0/subnetwork_t0_1_layer_dnn/head/labels/assert_rank_at_least/static_checks_determined_all_ok"
  attr {
    key: "_output_shapes"
    value {
      list {
        shape {
          dim {
            size: 1
          }
        }
      }
    }
  }
  attr {
    key: "dtype"
    value {
      type: DT_INT32
    }
  }
  attr {
    key: "value"
    value {
      tensor {
        dtype: DT_INT32
        tensor_shape {
          dim {
            size: 1
          }
        }
        int_val: 0
      }
    }
  }
}
node {
  name: "adanet/iteration_0/subnetwork_t0_1_layer_dnn/head/labels/strided_slice/stack_1"
  op: "Const"
  input: "^adanet/iteration_0/subnetwork_t0_1_layer_dnn/head/labels/assert_rank_at_least/static_checks_determined_all_ok"
  attr {
    key: "_output_shapes"
    value {
      list {
        shape {
          dim {
            size: 1
          }
        }
      }
    }
  }
  attr {
    key: "dtype"
    value {
      type: DT_INT32
    }
  }
  attr {
    key: "value"
    value {
      tensor {
        dtype: DT_INT32
        tensor_shape {
          dim {
            size: 1
          }
        }
        int_val: -1
      }
    }
  }
}
node {
  name: "adanet/iteration_0/subnetwork_t0_1_layer_dnn/head/labels/strided_slice/stack_2"
  op: "Const"
  input: "^adanet/iteration_0/subnetwork_t0_1_layer_dnn/head/labels/assert_rank_at_least/static_checks_determined_all_ok"
  attr {
    key: "_output_shapes"
    value {
      list {
        shape {
          dim {
            size: 1
          }
        }
      }
    }
  }
  attr {
    key: "dtype"
    value {
      type: DT_INT32
    }
  }
  attr {
    key: "value"
    value {
      tensor {
        dtype: DT_INT32
        tensor_shape {
          dim {
            size: 1
          }
        }
        int_val: 1
      }
    }
  }
}
node {
  name: "adanet/iteration_0/subnetwork_t0_1_layer_dnn/head/labels/strided_slice"
  op: "StridedSlice"
  input: "adanet/iteration_0/subnetwork_t0_1_layer_dnn/head/labels/Shape_1"
  input: "adanet/iteration_0/subnetwork_t0_1_layer_dnn/head/labels/strided_slice/stack"
  input: "adanet/iteration_0/subnetwork_t0_1_layer_dnn/head/labels/strided_slice/stack_1"
  input: "adanet/iteration_0/subnetwork_t0_1_layer_dnn/head/labels/strided_slice/stack_2"
  attr {
    key: "Index"
    value {
      type: DT_INT32
    }
  }
  attr {
    key: "T"
    value {
      type: DT_INT32
    }
  }
  attr {
    key: "_output_shapes"
    value {
      list {
        shape {
          dim {
            size: 1
          }
        }
      }
    }
  }
  attr {
    key: "begin_mask"
    value {
      i: 1
    }
  }
  attr {
    key: "ellipsis_mask"
    value {
      i: 0
    }
  }
  attr {
    key: "end_mask"
    value {
      i: 0
    }
  }
  attr {
    key: "new_axis_mask"
    value {
      i: 0
    }
  }
  attr {
    key: "shrink_axis_mask"
    value {
      i: 0
    }
  }
}
node {
  name: "adanet/iteration_0/subnetwork_t0_1_layer_dnn/head/labels/concat/values_1"
  op: "Const"
  input: "^adanet/iteration_0/subnetwork_t0_1_layer_dnn/head/labels/assert_rank_at_least/static_checks_determined_all_ok"
  attr {
    key: "_output_shapes"
    value {
      list {
        shape {
          dim {
            size: 1
          }
        }
      }
    }
  }
  attr {
    key: "dtype"
    value {
      type: DT_INT32
    }
  }
  attr {
    key: "value"
    value {
      tensor {
        dtype: DT_INT32
        tensor_shape {
          dim {
            size: 1
          }
        }
        int_val: 1
      }
    }
  }
}
node {
  name: "adanet/iteration_0/subnetwork_t0_1_layer_dnn/head/labels/concat/axis"
  op: "Const"
  input: "^adanet/iteration_0/subnetwork_t0_1_layer_dnn/head/labels/assert_rank_at_least/static_checks_determined_all_ok"
  attr {
    key: "_output_shapes"
    value {
      list {
        shape {
        }
      }
    }
  }
  attr {
    key: "dtype"
    value {
      type: DT_INT32
    }
  }
  attr {
    key: "value"
    value {
      tensor {
        dtype: DT_INT32
        tensor_shape {
        }
        int_val: 0
      }
    }
  }
}
node {
  name: "adanet/iteration_0/subnetwork_t0_1_layer_dnn/head/labels/concat"
  op: "ConcatV2"
  input: "adanet/iteration_0/subnetwork_t0_1_layer_dnn/head/labels/strided_slice"
  input: "adanet/iteration_0/subnetwork_t0_1_layer_dnn/head/labels/concat/values_1"
  input: "adanet/iteration_0/subnetwork_t0_1_layer_dnn/head/labels/concat/axis"
  attr {
    key: "N"
    value {
      i: 2
    }
  }
  attr {
    key: "T"
    value {
      type: DT_INT32
    }
  }
  attr {
    key: "Tidx"
    value {
      type: DT_INT32
    }
  }
  attr {
    key: "_output_shapes"
    value {
      list {
        shape {
          dim {
            size: 2
          }
        }
      }
    }
  }
}
node {
  name: "adanet/iteration_0/subnetwork_t0_1_layer_dnn/head/labels/assert_equal/Equal"
  op: "Equal"
  input: "adanet/iteration_0/subnetwork_t0_1_layer_dnn/head/labels/concat"
  input: "adanet/iteration_0/subnetwork_t0_1_layer_dnn/head/labels/Shape"
  attr {
    key: "T"
    value {
      type: DT_INT32
    }
  }
  attr {
    key: "_output_shapes"
    value {
      list {
        shape {
          dim {
            size: 2
          }
        }
      }
    }
  }
}
node {
  name: "adanet/iteration_0/subnetwork_t0_1_layer_dnn/head/labels/assert_equal/Const"
  op: "Const"
  input: "^adanet/iteration_0/subnetwork_t0_1_layer_dnn/head/labels/assert_rank_at_least/static_checks_determined_all_ok"
  attr {
    key: "_output_shapes"
    value {
      list {
        shape {
          dim {
            size: 1
          }
        }
      }
    }
  }
  attr {
    key: "dtype"
    value {
      type: DT_INT32
    }
  }
  attr {
    key: "value"
    value {
      tensor {
        dtype: DT_INT32
        tensor_shape {
          dim {
            size: 1
          }
        }
        int_val: 0
      }
    }
  }
}
node {
  name: "adanet/iteration_0/subnetwork_t0_1_layer_dnn/head/labels/assert_equal/All"
  op: "All"
  input: "adanet/iteration_0/subnetwork_t0_1_layer_dnn/head/labels/assert_equal/Equal"
  input: "adanet/iteration_0/subnetwork_t0_1_layer_dnn/head/labels/assert_equal/Const"
  attr {
    key: "Tidx"
    value {
      type: DT_INT32
    }
  }
  attr {
    key: "_output_shapes"
    value {
      list {
        shape {
        }
      }
    }
  }
  attr {
    key: "keep_dims"
    value {
      b: false
    }
  }
}
node {
  name: "adanet/iteration_0/subnetwork_t0_1_layer_dnn/head/labels/assert_equal/Assert/Const"
  op: "Const"
  input: "^adanet/iteration_0/subnetwork_t0_1_layer_dnn/head/labels/assert_rank_at_least/static_checks_determined_all_ok"
  attr {
    key: "_output_shapes"
    value {
      list {
        shape {
        }
      }
    }
  }
  attr {
    key: "dtype"
    value {
      type: DT_STRING
    }
  }
  attr {
    key: "value"
    value {
      tensor {
        dtype: DT_STRING
        tensor_shape {
        }
        string_val: "expected_labels_shape: "
      }
    }
  }
}
node {
  name: "adanet/iteration_0/subnetwork_t0_1_layer_dnn/head/labels/assert_equal/Assert/Const_1"
  op: "Const"
  input: "^adanet/iteration_0/subnetwork_t0_1_layer_dnn/head/labels/assert_rank_at_least/static_checks_determined_all_ok"
  attr {
    key: "_output_shapes"
    value {
      list {
        shape {
        }
      }
    }
  }
  attr {
    key: "dtype"
    value {
      type: DT_STRING
    }
  }
  attr {
    key: "value"
    value {
      tensor {
        dtype: DT_STRING
        tensor_shape {
        }
        string_val: "labels_shape: "
      }
    }
  }
}
node {
  name: "adanet/iteration_0/subnetwork_t0_1_layer_dnn/head/labels/assert_equal/Assert/Assert/data_0"
  op: "Const"
  input: "^adanet/iteration_0/subnetwork_t0_1_layer_dnn/head/labels/assert_rank_at_least/static_checks_determined_all_ok"
  attr {
    key: "_output_shapes"
    value {
      list {
        shape {
        }
      }
    }
  }
  attr {
    key: "dtype"
    value {
      type: DT_STRING
    }
  }
  attr {
    key: "value"
    value {
      tensor {
        dtype: DT_STRING
        tensor_shape {
        }
        string_val: "expected_labels_shape: "
      }
    }
  }
}
node {
  name: "adanet/iteration_0/subnetwork_t0_1_layer_dnn/head/labels/assert_equal/Assert/Assert/data_2"
  op: "Const"
  input: "^adanet/iteration_0/subnetwork_t0_1_layer_dnn/head/labels/assert_rank_at_least/static_checks_determined_all_ok"
  attr {
    key: "_output_shapes"
    value {
      list {
        shape {
        }
      }
    }
  }
  attr {
    key: "dtype"
    value {
      type: DT_STRING
    }
  }
  attr {
    key: "value"
    value {
      tensor {
        dtype: DT_STRING
        tensor_shape {
        }
        string_val: "labels_shape: "
      }
    }
  }
}
node {
  name: "adanet/iteration_0/subnetwork_t0_1_layer_dnn/head/labels/assert_equal/Assert/Assert"
  op: "Assert"
  input: "adanet/iteration_0/subnetwork_t0_1_layer_dnn/head/labels/assert_equal/All"
  input: "adanet/iteration_0/subnetwork_t0_1_layer_dnn/head/labels/assert_equal/Assert/Assert/data_0"
  input: "adanet/iteration_0/subnetwork_t0_1_layer_dnn/head/labels/concat"
  input: "adanet/iteration_0/subnetwork_t0_1_layer_dnn/head/labels/assert_equal/Assert/Assert/data_2"
  input: "adanet/iteration_0/subnetwork_t0_1_layer_dnn/head/labels/Shape"
  attr {
    key: "T"
    value {
      list {
        type: DT_STRING
        type: DT_INT32
        type: DT_STRING
        type: DT_INT32
      }
    }
  }
  attr {
    key: "summarize"
    value {
      i: 3
    }
  }
}
node {
  name: "adanet/iteration_0/subnetwork_t0_1_layer_dnn/head/labels"
  op: "Identity"
  input: "adanet/iteration_0/subnetwork_t0_1_layer_dnn/head/labels/ExpandDims"
  input: "^adanet/iteration_0/subnetwork_t0_1_layer_dnn/head/labels/assert_equal/Assert/Assert"
  input: "^adanet/iteration_0/subnetwork_t0_1_layer_dnn/head/labels/assert_rank_at_least/static_checks_determined_all_ok"
  attr {
    key: "T"
    value {
      type: DT_INT32
    }
  }
  attr {
    key: "_output_shapes"
    value {
      list {
        shape {
          dim {
            size: -1
          }
          dim {
            size: 1
          }
        }
      }
    }
  }
}
node {
  name: "adanet/iteration_0/subnetwork_t0_1_layer_dnn/head/assert_range/Const"
  op: "Const"
  attr {
    key: "_output_shapes"
    value {
      list {
        shape {
        }
      }
    }
  }
  attr {
    key: "dtype"
    value {
      type: DT_INT32
    }
  }
  attr {
    key: "value"
    value {
      tensor {
        dtype: DT_INT32
        tensor_shape {
        }
        int_val: 9
      }
    }
  }
}
node {
  name: "adanet/iteration_0/subnetwork_t0_1_layer_dnn/head/assert_range/assert_less_equal/LessEqual"
  op: "LessEqual"
  input: "adanet/iteration_0/subnetwork_t0_1_layer_dnn/head/labels"
  input: "adanet/iteration_0/subnetwork_t0_1_layer_dnn/head/assert_range/Const"
  attr {
    key: "T"
    value {
      type: DT_INT32
    }
  }
  attr {
    key: "_output_shapes"
    value {
      list {
        shape {
          dim {
            size: -1
          }
          dim {
            size: 1
          }
        }
      }
    }
  }
}
node {
  name: "adanet/iteration_0/subnetwork_t0_1_layer_dnn/head/assert_range/assert_less_equal/Const"
  op: "Const"
  attr {
    key: "_output_shapes"
    value {
      list {
        shape {
          dim {
            size: 2
          }
        }
      }
    }
  }
  attr {
    key: "dtype"
    value {
      type: DT_INT32
    }
  }
  attr {
    key: "value"
    value {
      tensor {
        dtype: DT_INT32
        tensor_shape {
          dim {
            size: 2
          }
        }
        tensor_content: "\000\000\000\000\001\000\000\000"
      }
    }
  }
}
node {
  name: "adanet/iteration_0/subnetwork_t0_1_layer_dnn/head/assert_range/assert_less_equal/All"
  op: "All"
  input: "adanet/iteration_0/subnetwork_t0_1_layer_dnn/head/assert_range/assert_less_equal/LessEqual"
  input: "adanet/iteration_0/subnetwork_t0_1_layer_dnn/head/assert_range/assert_less_equal/Const"
  attr {
    key: "Tidx"
    value {
      type: DT_INT32
    }
  }
  attr {
    key: "_output_shapes"
    value {
      list {
        shape {
        }
      }
    }
  }
  attr {
    key: "keep_dims"
    value {
      b: false
    }
  }
}
node {
  name: "adanet/iteration_0/subnetwork_t0_1_layer_dnn/head/assert_range/assert_less_equal/Assert/Const"
  op: "Const"
  attr {
    key: "_output_shapes"
    value {
      list {
        shape {
        }
      }
    }
  }
  attr {
    key: "dtype"
    value {
      type: DT_STRING
    }
  }
  attr {
    key: "value"
    value {
      tensor {
        dtype: DT_STRING
        tensor_shape {
        }
        string_val: "Labels must <= n_classes - 1"
      }
    }
  }
}
node {
  name: "adanet/iteration_0/subnetwork_t0_1_layer_dnn/head/assert_range/assert_less_equal/Assert/Const_1"
  op: "Const"
  attr {
    key: "_output_shapes"
    value {
      list {
        shape {
        }
      }
    }
  }
  attr {
    key: "dtype"
    value {
      type: DT_STRING
    }
  }
  attr {
    key: "value"
    value {
      tensor {
        dtype: DT_STRING
        tensor_shape {
        }
        string_val: "…"
      }
    }
  }
}
node {
  name: "adanet/iteration_0/subnetwork_t0_1_layer_dnn/head/assert_range/assert_less_equal/Assert/Const_2"
  op: "Const"
  attr {
    key: "_output_shapes"
    value {
      list {
        shape {
        }
      }
    }
  }
  attr {
    key: "dtype"
    value {
      type: DT_STRING
    }
  }
  attr {
    key: "value"
    value {
      tensor {
        dtype: DT_STRING
        tensor_shape {
        }
        string_val: "y (adanet/iteration_0/subnetwork_t0_1_layer_dnn/head/assert_range/Const:0) = "
      }
    }
  }
}
node {
  name: "adanet/iteration_0/subnetwork_t0_1_layer_dnn/head/assert_range/assert_less_equal/Assert/Assert/data_0"
  op: "Const"
  attr {
    key: "_output_shapes"
    value {
      list {
        shape {
        }
      }
    }
  }
  attr {
    key: "dtype"
    value {
      type: DT_STRING
    }
  }
  attr {
    key: "value"
    value {
      tensor {
        dtype: DT_STRING
        tensor_shape {
        }
        string_val: "Labels must <= n_classes - 1"
      }
    }
  }
}
node {
  name: "adanet/iteration_0/subnetwork_t0_1_layer_dnn/head/assert_range/assert_less_equal/Assert/Assert/data_1"
  op: "Const"
  attr {
    key: "_output_shapes"
    value {
      list {
        shape {
        }
      }
    }
  }
  attr {
    key: "dtype"
    value {
      type: DT_STRING
    }
  }
  attr {
    key: "value"
    value {
      tensor {
        dtype: DT_STRING
        tensor_shape {
        }
        string_val: "…"
      }
    }
  }
}
node {
  name: "adanet/iteration_0/subnetwork_t0_1_layer_dnn/head/assert_range/assert_less_equal/Assert/Assert/data_3"
  op: "Const"
  attr {
    key: "_output_shapes"
    value {
      list {
        shape {
        }
      }
    }
  }
  attr {
    key: "dtype"
    value {
      type: DT_STRING
    }
  }
  attr {
    key: "value"
    value {
      tensor {
        dtype: DT_STRING
        tensor_shape {
        }
        string_val: "y (adanet/iteration_0/subnetwork_t0_1_layer_dnn/head/assert_range/Const:0) = "
      }
    }
  }
}
node {
  name: "adanet/iteration_0/subnetwork_t0_1_layer_dnn/head/assert_range/assert_less_equal/Assert/Assert"
  op: "Assert"
  input: "adanet/iteration_0/subnetwork_t0_1_layer_dnn/head/assert_range/assert_less_equal/All"
  input: "adanet/iteration_0/subnetwork_t0_1_layer_dnn/head/assert_range/assert_less_equal/Assert/Assert/data_0"
  input: "adanet/iteration_0/subnetwork_t0_1_layer_dnn/head/assert_range/assert_less_equal/Assert/Assert/data_1"
  input: "adanet/iteration_0/subnetwork_t0_1_layer_dnn/head/labels"
  input: "adanet/iteration_0/subnetwork_t0_1_layer_dnn/head/assert_range/assert_less_equal/Assert/Assert/data_3"
  input: "adanet/iteration_0/subnetwork_t0_1_layer_dnn/head/assert_range/Const"
  attr {
    key: "T"
    value {
      list {
        type: DT_STRING
        type: DT_STRING
        type: DT_INT32
        type: DT_STRING
        type: DT_INT32
      }
    }
  }
  attr {
    key: "summarize"
    value {
      i: 3
    }
  }
}
node {
  name: "adanet/iteration_0/subnetwork_t0_1_layer_dnn/head/assert_range/assert_non_negative/Const"
  op: "Const"
  attr {
    key: "_output_shapes"
    value {
      list {
        shape {
        }
      }
    }
  }
  attr {
    key: "dtype"
    value {
      type: DT_INT32
    }
  }
  attr {
    key: "value"
    value {
      tensor {
        dtype: DT_INT32
        tensor_shape {
        }
        int_val: 0
      }
    }
  }
}
node {
  name: "adanet/iteration_0/subnetwork_t0_1_layer_dnn/head/assert_range/assert_non_negative/assert_less_equal/LessEqual"
  op: "LessEqual"
  input: "adanet/iteration_0/subnetwork_t0_1_layer_dnn/head/assert_range/assert_non_negative/Const"
  input: "adanet/iteration_0/subnetwork_t0_1_layer_dnn/head/labels"
  attr {
    key: "T"
    value {
      type: DT_INT32
    }
  }
  attr {
    key: "_output_shapes"
    value {
      list {
        shape {
          dim {
            size: -1
          }
          dim {
            size: 1
          }
        }
      }
    }
  }
}
node {
  name: "adanet/iteration_0/subnetwork_t0_1_layer_dnn/head/assert_range/assert_non_negative/assert_less_equal/Const"
  op: "Const"
  attr {
    key: "_output_shapes"
    value {
      list {
        shape {
          dim {
            size: 2
          }
        }
      }
    }
  }
  attr {
    key: "dtype"
    value {
      type: DT_INT32
    }
  }
  attr {
    key: "value"
    value {
      tensor {
        dtype: DT_INT32
        tensor_shape {
          dim {
            size: 2
          }
        }
        tensor_content: "\000\000\000\000\001\000\000\000"
      }
    }
  }
}
node {
  name: "adanet/iteration_0/subnetwork_t0_1_layer_dnn/head/assert_range/assert_non_negative/assert_less_equal/All"
  op: "All"
  input: "adanet/iteration_0/subnetwork_t0_1_layer_dnn/head/assert_range/assert_non_negative/assert_less_equal/LessEqual"
  input: "adanet/iteration_0/subnetwork_t0_1_layer_dnn/head/assert_range/assert_non_negative/assert_less_equal/Const"
  attr {
    key: "Tidx"
    value {
      type: DT_INT32
    }
  }
  attr {
    key: "_output_shapes"
    value {
      list {
        shape {
        }
      }
    }
  }
  attr {
    key: "keep_dims"
    value {
      b: false
    }
  }
}
node {
  name: "adanet/iteration_0/subnetwork_t0_1_layer_dnn/head/assert_range/assert_non_negative/assert_less_equal/Assert/Const"
  op: "Const"
  attr {
    key: "_output_shapes"
    value {
      list {
        shape {
        }
      }
    }
  }
  attr {
    key: "dtype"
    value {
      type: DT_STRING
    }
  }
  attr {
    key: "value"
    value {
      tensor {
        dtype: DT_STRING
        tensor_shape {
        }
        string_val: "Labels must >= 0"
      }
    }
  }
}
node {
  name: "adanet/iteration_0/subnetwork_t0_1_layer_dnn/head/assert_range/assert_non_negative/assert_less_equal/Assert/Const_1"
  op: "Const"
  attr {
    key: "_output_shapes"
    value {
      list {
        shape {
        }
      }
    }
  }
  attr {
    key: "dtype"
    value {
      type: DT_STRING
    }
  }
  attr {
    key: "value"
    value {
      tensor {
        dtype: DT_STRING
        tensor_shape {
        }
        string_val: "Condition x >= 0 did not hold element-wise:"
      }
    }
  }
}
node {
  name: "adanet/iteration_0/subnetwork_t0_1_layer_dnn/head/assert_range/assert_non_negative/assert_less_equal/Assert/Const_2"
  op: "Const"
  attr {
    key: "_output_shapes"
    value {
      list {
        shape {
        }
      }
    }
  }
  attr {
    key: "dtype"
    value {
      type: DT_STRING
    }
  }
  attr {
    key: "value"
    value {
      tensor {
        dtype: DT_STRING
        tensor_shape {
        }
        string_val: "x (adanet/iteration_0/subnetwork_t0_1_layer_dnn/head/labels:0) = "
      }
    }
  }
}
node {
  name: "adanet/iteration_0/subnetwork_t0_1_layer_dnn/head/assert_range/assert_non_negative/assert_less_equal/Assert/Assert/data_0"
  op: "Const"
  attr {
    key: "_output_shapes"
    value {
      list {
        shape {
        }
      }
    }
  }
  attr {
    key: "dtype"
    value {
      type: DT_STRING
    }
  }
  attr {
    key: "value"
    value {
      tensor {
        dtype: DT_STRING
        tensor_shape {
        }
        string_val: "Labels must >= 0"
      }
    }
  }
}
node {
  name: "adanet/iteration_0/subnetwork_t0_1_layer_dnn/head/assert_range/assert_non_negative/assert_less_equal/Assert/Assert/data_1"
  op: "Const"
  attr {
    key: "_output_shapes"
    value {
      list {
        shape {
        }
      }
    }
  }
  attr {
    key: "dtype"
    value {
      type: DT_STRING
    }
  }
  attr {
    key: "value"
    value {
      tensor {
        dtype: DT_STRING
        tensor_shape {
        }
        string_val: "Condition x >= 0 did not hold element-wise:"
      }
    }
  }
}
node {
  name: "adanet/iteration_0/subnetwork_t0_1_layer_dnn/head/assert_range/assert_non_negative/assert_less_equal/Assert/Assert/data_2"
  op: "Const"
  attr {
    key: "_output_shapes"
    value {
      list {
        shape {
        }
      }
    }
  }
  attr {
    key: "dtype"
    value {
      type: DT_STRING
    }
  }
  attr {
    key: "value"
    value {
      tensor {
        dtype: DT_STRING
        tensor_shape {
        }
        string_val: "x (adanet/iteration_0/subnetwork_t0_1_layer_dnn/head/labels:0) = "
      }
    }
  }
}
node {
  name: "adanet/iteration_0/subnetwork_t0_1_layer_dnn/head/assert_range/assert_non_negative/assert_less_equal/Assert/Assert"
  op: "Assert"
  input: "adanet/iteration_0/subnetwork_t0_1_layer_dnn/head/assert_range/assert_non_negative/assert_less_equal/All"
  input: "adanet/iteration_0/subnetwork_t0_1_layer_dnn/head/assert_range/assert_non_negative/assert_less_equal/Assert/Assert/data_0"
  input: "adanet/iteration_0/subnetwork_t0_1_layer_dnn/head/assert_range/assert_non_negative/assert_less_equal/Assert/Assert/data_1"
  input: "adanet/iteration_0/subnetwork_t0_1_layer_dnn/head/assert_range/assert_non_negative/assert_less_equal/Assert/Assert/data_2"
  input: "adanet/iteration_0/subnetwork_t0_1_layer_dnn/head/labels"
  attr {
    key: "T"
    value {
      list {
        type: DT_STRING
        type: DT_STRING
        type: DT_STRING
        type: DT_INT32
      }
    }
  }
  attr {
    key: "summarize"
    value {
      i: 3
    }
  }
}
node {
  name: "adanet/iteration_0/subnetwork_t0_1_layer_dnn/head/assert_range/Identity"
  op: "Identity"
  input: "adanet/iteration_0/subnetwork_t0_1_layer_dnn/head/labels"
  input: "^adanet/iteration_0/subnetwork_t0_1_layer_dnn/head/assert_range/assert_less_equal/Assert/Assert"
  input: "^adanet/iteration_0/subnetwork_t0_1_layer_dnn/head/assert_range/assert_non_negative/assert_less_equal/Assert/Assert"
  attr {
    key: "T"
    value {
      type: DT_INT32
    }
  }
  attr {
    key: "_output_shapes"
    value {
      list {
        shape {
          dim {
            size: -1
          }
          dim {
            size: 1
          }
        }
      }
    }
  }
}
node {
  name: "adanet/iteration_0/subnetwork_t0_1_layer_dnn/head/sparse_softmax_cross_entropy_loss/remove_squeezable_dimensions/Squeeze"
  op: "Squeeze"
  input: "adanet/iteration_0/subnetwork_t0_1_layer_dnn/head/assert_range/Identity"
  attr {
    key: "T"
    value {
      type: DT_INT32
    }
  }
  attr {
    key: "_output_shapes"
    value {
      list {
        shape {
          dim {
            size: -1
          }
        }
      }
    }
  }
  attr {
    key: "squeeze_dims"
    value {
      list {
        i: -1
      }
    }
  }
}
node {
  name: "adanet/iteration_0/subnetwork_t0_1_layer_dnn/head/sparse_softmax_cross_entropy_loss/Const"
  op: "Const"
  attr {
    key: "_output_shapes"
    value {
      list {
        shape {
        }
      }
    }
  }
  attr {
    key: "dtype"
    value {
      type: DT_FLOAT
    }
  }
  attr {
    key: "value"
    value {
      tensor {
        dtype: DT_FLOAT
        tensor_shape {
        }
        float_val: 1.0
      }
    }
  }
}
node {
  name: "adanet/iteration_0/subnetwork_t0_1_layer_dnn/head/sparse_softmax_cross_entropy_loss/xentropy/Shape"
  op: "Shape"
  input: "adanet/iteration_0/subnetwork_t0_1_layer_dnn/head/sparse_softmax_cross_entropy_loss/remove_squeezable_dimensions/Squeeze"
  attr {
    key: "T"
    value {
      type: DT_INT32
    }
  }
  attr {
    key: "_output_shapes"
    value {
      list {
        shape {
          dim {
            size: 1
          }
        }
      }
    }
  }
  attr {
    key: "out_type"
    value {
      type: DT_INT32
    }
  }
}
node {
  name: "adanet/iteration_0/subnetwork_t0_1_layer_dnn/head/sparse_softmax_cross_entropy_loss/xentropy/xentropy"
  op: "SparseSoftmaxCrossEntropyWithLogits"
  input: "adanet/iteration_0/subnetwork_t0_1_layer_dnn/dense_1/BiasAdd"
  input: "adanet/iteration_0/subnetwork_t0_1_layer_dnn/head/sparse_softmax_cross_entropy_loss/remove_squeezable_dimensions/Squeeze"
  attr {
    key: "T"
    value {
      type: DT_FLOAT
    }
  }
  attr {
    key: "Tlabels"
    value {
      type: DT_INT32
    }
  }
  attr {
    key: "_output_shapes"
    value {
      list {
        shape {
          dim {
            size: -1
          }
        }
        shape {
          dim {
            size: -1
          }
          dim {
            size: 10
          }
        }
      }
    }
  }
}
node {
  name: "adanet/iteration_0/subnetwork_t0_1_layer_dnn/head/sparse_softmax_cross_entropy_loss/assert_broadcastable/weights/shape"
  op: "Const"
  attr {
    key: "_output_shapes"
    value {
      list {
        shape {
          dim {
          }
        }
      }
    }
  }
  attr {
    key: "dtype"
    value {
      type: DT_INT32
    }
  }
  attr {
    key: "value"
    value {
      tensor {
        dtype: DT_INT32
        tensor_shape {
          dim {
          }
        }
      }
    }
  }
}
node {
  name: "adanet/iteration_0/subnetwork_t0_1_layer_dnn/head/sparse_softmax_cross_entropy_loss/assert_broadcastable/weights/rank"
  op: "Const"
  attr {
    key: "_output_shapes"
    value {
      list {
        shape {
        }
      }
    }
  }
  attr {
    key: "dtype"
    value {
      type: DT_INT32
    }
  }
  attr {
    key: "value"
    value {
      tensor {
        dtype: DT_INT32
        tensor_shape {
        }
        int_val: 0
      }
    }
  }
}
node {
  name: "adanet/iteration_0/subnetwork_t0_1_layer_dnn/head/sparse_softmax_cross_entropy_loss/assert_broadcastable/values/shape"
  op: "Shape"
  input: "adanet/iteration_0/subnetwork_t0_1_layer_dnn/head/sparse_softmax_cross_entropy_loss/xentropy/xentropy"
  attr {
    key: "T"
    value {
      type: DT_FLOAT
    }
  }
  attr {
    key: "_output_shapes"
    value {
      list {
        shape {
          dim {
            size: 1
          }
        }
      }
    }
  }
  attr {
    key: "out_type"
    value {
      type: DT_INT32
    }
  }
}
node {
  name: "adanet/iteration_0/subnetwork_t0_1_layer_dnn/head/sparse_softmax_cross_entropy_loss/assert_broadcastable/values/rank"
  op: "Const"
  attr {
    key: "_output_shapes"
    value {
      list {
        shape {
        }
      }
    }
  }
  attr {
    key: "dtype"
    value {
      type: DT_INT32
    }
  }
  attr {
    key: "value"
    value {
      tensor {
        dtype: DT_INT32
        tensor_shape {
        }
        int_val: 1
      }
    }
  }
}
node {
  name: "adanet/iteration_0/subnetwork_t0_1_layer_dnn/head/sparse_softmax_cross_entropy_loss/assert_broadcastable/static_scalar_check_success"
  op: "NoOp"
}
node {
  name: "adanet/iteration_0/subnetwork_t0_1_layer_dnn/head/sparse_softmax_cross_entropy_loss/Mul"
  op: "Mul"
  input: "adanet/iteration_0/subnetwork_t0_1_layer_dnn/head/sparse_softmax_cross_entropy_loss/xentropy/xentropy"
  input: "adanet/iteration_0/subnetwork_t0_1_layer_dnn/head/sparse_softmax_cross_entropy_loss/Const"
  input: "^adanet/iteration_0/subnetwork_t0_1_layer_dnn/head/sparse_softmax_cross_entropy_loss/assert_broadcastable/static_scalar_check_success"
  attr {
    key: "T"
    value {
      type: DT_FLOAT
    }
  }
  attr {
    key: "_output_shapes"
    value {
      list {
        shape {
          dim {
            size: -1
          }
        }
      }
    }
  }
}
node {
  name: "adanet/iteration_0/subnetwork_t0_1_layer_dnn/head/ExpandDims/dim"
  op: "Const"
  attr {
    key: "_output_shapes"
    value {
      list {
        shape {
        }
      }
    }
  }
  attr {
    key: "dtype"
    value {
      type: DT_INT32
    }
  }
  attr {
    key: "value"
    value {
      tensor {
        dtype: DT_INT32
        tensor_shape {
        }
        int_val: -1
      }
    }
  }
}
node {
  name: "adanet/iteration_0/subnetwork_t0_1_layer_dnn/head/ExpandDims"
  op: "ExpandDims"
  input: "adanet/iteration_0/subnetwork_t0_1_layer_dnn/head/sparse_softmax_cross_entropy_loss/Mul"
  input: "adanet/iteration_0/subnetwork_t0_1_layer_dnn/head/ExpandDims/dim"
  attr {
    key: "T"
    value {
      type: DT_FLOAT
    }
  }
  attr {
    key: "Tdim"
    value {
      type: DT_INT32
    }
  }
  attr {
    key: "_output_shapes"
    value {
      list {
        shape {
          dim {
            size: -1
          }
          dim {
            size: 1
          }
        }
      }
    }
  }
}
node {
  name: "adanet/iteration_0/subnetwork_t0_1_layer_dnn/head/weighted_loss/assert_broadcastable/weights"
  op: "Const"
  attr {
    key: "_output_shapes"
    value {
      list {
        shape {
        }
      }
    }
  }
  attr {
    key: "dtype"
    value {
      type: DT_FLOAT
    }
  }
  attr {
    key: "value"
    value {
      tensor {
        dtype: DT_FLOAT
        tensor_shape {
        }
        float_val: 1.0
      }
    }
  }
}
node {
  name: "adanet/iteration_0/subnetwork_t0_1_layer_dnn/head/weighted_loss/assert_broadcastable/weights/shape"
  op: "Const"
  attr {
    key: "_output_shapes"
    value {
      list {
        shape {
          dim {
          }
        }
      }
    }
  }
  attr {
    key: "dtype"
    value {
      type: DT_INT32
    }
  }
  attr {
    key: "value"
    value {
      tensor {
        dtype: DT_INT32
        tensor_shape {
          dim {
          }
        }
      }
    }
  }
}
node {
  name: "adanet/iteration_0/subnetwork_t0_1_layer_dnn/head/weighted_loss/assert_broadcastable/weights/rank"
  op: "Const"
  attr {
    key: "_output_shapes"
    value {
      list {
        shape {
        }
      }
    }
  }
  attr {
    key: "dtype"
    value {
      type: DT_INT32
    }
  }
  attr {
    key: "value"
    value {
      tensor {
        dtype: DT_INT32
        tensor_shape {
        }
        int_val: 0
      }
    }
  }
}
node {
  name: "adanet/iteration_0/subnetwork_t0_1_layer_dnn/head/weighted_loss/assert_broadcastable/values/shape"
  op: "Shape"
  input: "adanet/iteration_0/subnetwork_t0_1_layer_dnn/head/ExpandDims"
  attr {
    key: "T"
    value {
      type: DT_FLOAT
    }
  }
  attr {
    key: "_output_shapes"
    value {
      list {
        shape {
          dim {
            size: 2
          }
        }
      }
    }
  }
  attr {
    key: "out_type"
    value {
      type: DT_INT32
    }
  }
}
node {
  name: "adanet/iteration_0/subnetwork_t0_1_layer_dnn/head/weighted_loss/assert_broadcastable/values/rank"
  op: "Const"
  attr {
    key: "_output_shapes"
    value {
      list {
        shape {
        }
      }
    }
  }
  attr {
    key: "dtype"
    value {
      type: DT_INT32
    }
  }
  attr {
    key: "value"
    value {
      tensor {
        dtype: DT_INT32
        tensor_shape {
        }
        int_val: 2
      }
    }
  }
}
node {
  name: "adanet/iteration_0/subnetwork_t0_1_layer_dnn/head/weighted_loss/assert_broadcastable/static_scalar_check_success"
  op: "NoOp"
}
node {
  name: "adanet/iteration_0/subnetwork_t0_1_layer_dnn/head/weighted_loss/ToFloat/x"
  op: "Const"
  input: "^adanet/iteration_0/subnetwork_t0_1_layer_dnn/head/weighted_loss/assert_broadcastable/static_scalar_check_success"
  attr {
    key: "_output_shapes"
    value {
      list {
        shape {
        }
      }
    }
  }
  attr {
    key: "dtype"
    value {
      type: DT_FLOAT
    }
  }
  attr {
    key: "value"
    value {
      tensor {
        dtype: DT_FLOAT
        tensor_shape {
        }
        float_val: 1.0
      }
    }
  }
}
node {
  name: "adanet/iteration_0/subnetwork_t0_1_layer_dnn/head/weighted_loss/Mul"
  op: "Mul"
  input: "adanet/iteration_0/subnetwork_t0_1_layer_dnn/head/ExpandDims"
  input: "adanet/iteration_0/subnetwork_t0_1_layer_dnn/head/weighted_loss/ToFloat/x"
  attr {
    key: "T"
    value {
      type: DT_FLOAT
    }
  }
  attr {
    key: "_output_shapes"
    value {
      list {
        shape {
          dim {
            size: -1
          }
          dim {
            size: 1
          }
        }
      }
    }
  }
}
node {
  name: "adanet/iteration_0/subnetwork_t0_1_layer_dnn/head/weighted_loss/Const"
  op: "Const"
  input: "^adanet/iteration_0/subnetwork_t0_1_layer_dnn/head/weighted_loss/assert_broadcastable/static_scalar_check_success"
  attr {
    key: "_output_shapes"
    value {
      list {
        shape {
          dim {
            size: 2
          }
        }
      }
    }
  }
  attr {
    key: "dtype"
    value {
      type: DT_INT32
    }
  }
  attr {
    key: "value"
    value {
      tensor {
        dtype: DT_INT32
        tensor_shape {
          dim {
            size: 2
          }
        }
        tensor_content: "\000\000\000\000\001\000\000\000"
      }
    }
  }
}
node {
  name: "adanet/iteration_0/subnetwork_t0_1_layer_dnn/head/weighted_loss/Sum"
  op: "Sum"
  input: "adanet/iteration_0/subnetwork_t0_1_layer_dnn/head/weighted_loss/Mul"
  input: "adanet/iteration_0/subnetwork_t0_1_layer_dnn/head/weighted_loss/Const"
  attr {
    key: "T"
    value {
      type: DT_FLOAT
    }
  }
  attr {
    key: "Tidx"
    value {
      type: DT_INT32
    }
  }
  attr {
    key: "_output_shapes"
    value {
      list {
        shape {
        }
      }
    }
  }
  attr {
    key: "keep_dims"
    value {
      b: false
    }
  }
}
node {
  name: "adanet/iteration_0/subnetwork_t0_1_layer_dnn/head/weighted_loss/num_elements"
  op: "Size"
  input: "adanet/iteration_0/subnetwork_t0_1_layer_dnn/head/ExpandDims"
  input: "^adanet/iteration_0/subnetwork_t0_1_layer_dnn/head/weighted_loss/assert_broadcastable/static_scalar_check_success"
  attr {
    key: "T"
    value {
      type: DT_FLOAT
    }
  }
  attr {
    key: "_output_shapes"
    value {
      list {
        shape {
        }
      }
    }
  }
  attr {
    key: "out_type"
    value {
      type: DT_INT32
    }
  }
}
node {
  name: "adanet/iteration_0/subnetwork_t0_1_layer_dnn/head/weighted_loss/num_elements/Cast"
  op: "Cast"
  input: "adanet/iteration_0/subnetwork_t0_1_layer_dnn/head/weighted_loss/num_elements"
  attr {
    key: "DstT"
    value {
      type: DT_FLOAT
    }
  }
  attr {
    key: "SrcT"
    value {
      type: DT_INT32
    }
  }
  attr {
    key: "Truncate"
    value {
      b: false
    }
  }
  attr {
    key: "_output_shapes"
    value {
      list {
        shape {
        }
      }
    }
  }
}
node {
  name: "adanet/iteration_0/subnetwork_t0_1_layer_dnn/head/weighted_loss/Const_1"
  op: "Const"
  input: "^adanet/iteration_0/subnetwork_t0_1_layer_dnn/head/weighted_loss/assert_broadcastable/static_scalar_check_success"
  attr {
    key: "_output_shapes"
    value {
      list {
        shape {
          dim {
          }
        }
      }
    }
  }
  attr {
    key: "dtype"
    value {
      type: DT_INT32
    }
  }
  attr {
    key: "value"
    value {
      tensor {
        dtype: DT_INT32
        tensor_shape {
          dim {
          }
        }
      }
    }
  }
}
node {
  name: "adanet/iteration_0/subnetwork_t0_1_layer_dnn/head/weighted_loss/Sum_1"
  op: "Sum"
  input: "adanet/iteration_0/subnetwork_t0_1_layer_dnn/head/weighted_loss/Sum"
  input: "adanet/iteration_0/subnetwork_t0_1_layer_dnn/head/weighted_loss/Const_1"
  attr {
    key: "T"
    value {
      type: DT_FLOAT
    }
  }
  attr {
    key: "Tidx"
    value {
      type: DT_INT32
    }
  }
  attr {
    key: "_output_shapes"
    value {
      list {
        shape {
        }
      }
    }
  }
  attr {
    key: "keep_dims"
    value {
      b: false
    }
  }
}
node {
  name: "adanet/iteration_0/subnetwork_t0_1_layer_dnn/head/weighted_loss/value"
  op: "DivNoNan"
  input: "adanet/iteration_0/subnetwork_t0_1_layer_dnn/head/weighted_loss/Sum_1"
  input: "adanet/iteration_0/subnetwork_t0_1_layer_dnn/head/weighted_loss/num_elements/Cast"
  attr {
    key: "T"
    value {
      type: DT_FLOAT
    }
  }
  attr {
    key: "_output_shapes"
    value {
      list {
        shape {
        }
      }
    }
  }
}
node {
  name: "adanet/iteration_0/subnetwork_t0_1_layer_dnn/metrics/average_loss/total/Initializer/zeros"
  op: "Const"
  attr {
    key: "_class"
    value {
      list {
        s: "loc:@adanet/iteration_0/subnetwork_t0_1_layer_dnn/metrics/average_loss/total"
      }
    }
  }
  attr {
    key: "_output_shapes"
    value {
      list {
        shape {
        }
      }
    }
  }
  attr {
    key: "dtype"
    value {
      type: DT_FLOAT
    }
  }
  attr {
    key: "value"
    value {
      tensor {
        dtype: DT_FLOAT
        tensor_shape {
        }
        float_val: 0.0
      }
    }
  }
}
node {
  name: "adanet/iteration_0/subnetwork_t0_1_layer_dnn/metrics/average_loss/total"
  op: "VariableV2"
  attr {
    key: "_class"
    value {
      list {
        s: "loc:@adanet/iteration_0/subnetwork_t0_1_layer_dnn/metrics/average_loss/total"
      }
    }
  }
  attr {
    key: "_output_shapes"
    value {
      list {
        shape {
        }
      }
    }
  }
  attr {
    key: "container"
    value {
      s: ""
    }
  }
  attr {
    key: "dtype"
    value {
      type: DT_FLOAT
    }
  }
  attr {
    key: "shape"
    value {
      shape {
      }
    }
  }
  attr {
    key: "shared_name"
    value {
      s: ""
    }
  }
}
node {
  name: "adanet/iteration_0/subnetwork_t0_1_layer_dnn/metrics/average_loss/total/Assign"
  op: "Assign"
  input: "adanet/iteration_0/subnetwork_t0_1_layer_dnn/metrics/average_loss/total"
  input: "adanet/iteration_0/subnetwork_t0_1_layer_dnn/metrics/average_loss/total/Initializer/zeros"
  attr {
    key: "T"
    value {
      type: DT_FLOAT
    }
  }
  attr {
    key: "_class"
    value {
      list {
        s: "loc:@adanet/iteration_0/subnetwork_t0_1_layer_dnn/metrics/average_loss/total"
      }
    }
  }
  attr {
    key: "_output_shapes"
    value {
      list {
        shape {
        }
      }
    }
  }
  attr {
    key: "use_locking"
    value {
      b: true
    }
  }
  attr {
    key: "validate_shape"
    value {
      b: true
    }
  }
}
node {
  name: "adanet/iteration_0/subnetwork_t0_1_layer_dnn/metrics/average_loss/total/read"
  op: "Identity"
  input: "adanet/iteration_0/subnetwork_t0_1_layer_dnn/metrics/average_loss/total"
  attr {
    key: "T"
    value {
      type: DT_FLOAT
    }
  }
  attr {
    key: "_class"
    value {
      list {
        s: "loc:@adanet/iteration_0/subnetwork_t0_1_layer_dnn/metrics/average_loss/total"
      }
    }
  }
  attr {
    key: "_output_shapes"
    value {
      list {
        shape {
        }
      }
    }
  }
}
node {
  name: "adanet/iteration_0/subnetwork_t0_1_layer_dnn/metrics/average_loss/count/Initializer/zeros"
  op: "Const"
  attr {
    key: "_class"
    value {
      list {
        s: "loc:@adanet/iteration_0/subnetwork_t0_1_layer_dnn/metrics/average_loss/count"
      }
    }
  }
  attr {
    key: "_output_shapes"
    value {
      list {
        shape {
        }
      }
    }
  }
  attr {
    key: "dtype"
    value {
      type: DT_FLOAT
    }
  }
  attr {
    key: "value"
    value {
      tensor {
        dtype: DT_FLOAT
        tensor_shape {
        }
        float_val: 0.0
      }
    }
  }
}
node {
  name: "adanet/iteration_0/subnetwork_t0_1_layer_dnn/metrics/average_loss/count"
  op: "VariableV2"
  attr {
    key: "_class"
    value {
      list {
        s: "loc:@adanet/iteration_0/subnetwork_t0_1_layer_dnn/metrics/average_loss/count"
      }
    }
  }
  attr {
    key: "_output_shapes"
    value {
      list {
        shape {
        }
      }
    }
  }
  attr {
    key: "container"
    value {
      s: ""
    }
  }
  attr {
    key: "dtype"
    value {
      type: DT_FLOAT
    }
  }
  attr {
    key: "shape"
    value {
      shape {
      }
    }
  }
  attr {
    key: "shared_name"
    value {
      s: ""
    }
  }
}
node {
  name: "adanet/iteration_0/subnetwork_t0_1_layer_dnn/metrics/average_loss/count/Assign"
  op: "Assign"
  input: "adanet/iteration_0/subnetwork_t0_1_layer_dnn/metrics/average_loss/count"
  input: "adanet/iteration_0/subnetwork_t0_1_layer_dnn/metrics/average_loss/count/Initializer/zeros"
  attr {
    key: "T"
    value {
      type: DT_FLOAT
    }
  }
  attr {
    key: "_class"
    value {
      list {
        s: "loc:@adanet/iteration_0/subnetwork_t0_1_layer_dnn/metrics/average_loss/count"
      }
    }
  }
  attr {
    key: "_output_shapes"
    value {
      list {
        shape {
        }
      }
    }
  }
  attr {
    key: "use_locking"
    value {
      b: true
    }
  }
  attr {
    key: "validate_shape"
    value {
      b: true
    }
  }
}
node {
  name: "adanet/iteration_0/subnetwork_t0_1_layer_dnn/metrics/average_loss/count/read"
  op: "Identity"
  input: "adanet/iteration_0/subnetwork_t0_1_layer_dnn/metrics/average_loss/count"
  attr {
    key: "T"
    value {
      type: DT_FLOAT
    }
  }
  attr {
    key: "_class"
    value {
      list {
        s: "loc:@adanet/iteration_0/subnetwork_t0_1_layer_dnn/metrics/average_loss/count"
      }
    }
  }
  attr {
    key: "_output_shapes"
    value {
      list {
        shape {
        }
      }
    }
  }
}
node {
  name: "adanet/iteration_0/subnetwork_t0_1_layer_dnn/metrics/average_loss/Const"
  op: "Const"
  attr {
    key: "_output_shapes"
    value {
      list {
        shape {
        }
      }
    }
  }
  attr {
    key: "dtype"
    value {
      type: DT_FLOAT
    }
  }
  attr {
    key: "value"
    value {
      tensor {
        dtype: DT_FLOAT
        tensor_shape {
        }
        float_val: 1.0
      }
    }
  }
}
node {
  name: "adanet/iteration_0/subnetwork_t0_1_layer_dnn/metrics/average_loss/broadcast_weights/assert_broadcastable/weights/shape"
  op: "Const"
  attr {
    key: "_output_shapes"
    value {
      list {
        shape {
          dim {
          }
        }
      }
    }
  }
  attr {
    key: "dtype"
    value {
      type: DT_INT32
    }
  }
  attr {
    key: "value"
    value {
      tensor {
        dtype: DT_INT32
        tensor_shape {
          dim {
          }
        }
      }
    }
  }
}
node {
  name: "adanet/iteration_0/subnetwork_t0_1_layer_dnn/metrics/average_loss/broadcast_weights/assert_broadcastable/weights/rank"
  op: "Const"
  attr {
    key: "_output_shapes"
    value {
      list {
        shape {
        }
      }
    }
  }
  attr {
    key: "dtype"
    value {
      type: DT_INT32
    }
  }
  attr {
    key: "value"
    value {
      tensor {
        dtype: DT_INT32
        tensor_shape {
        }
        int_val: 0
      }
    }
  }
}
node {
  name: "adanet/iteration_0/subnetwork_t0_1_layer_dnn/metrics/average_loss/broadcast_weights/assert_broadcastable/values/shape"
  op: "Shape"
  input: "adanet/iteration_0/subnetwork_t0_1_layer_dnn/head/ExpandDims"
  attr {
    key: "T"
    value {
      type: DT_FLOAT
    }
  }
  attr {
    key: "_output_shapes"
    value {
      list {
        shape {
          dim {
            size: 2
          }
        }
      }
    }
  }
  attr {
    key: "out_type"
    value {
      type: DT_INT32
    }
  }
}
node {
  name: "adanet/iteration_0/subnetwork_t0_1_layer_dnn/metrics/average_loss/broadcast_weights/assert_broadcastable/values/rank"
  op: "Const"
  attr {
    key: "_output_shapes"
    value {
      list {
        shape {
        }
      }
    }
  }
  attr {
    key: "dtype"
    value {
      type: DT_INT32
    }
  }
  attr {
    key: "value"
    value {
      tensor {
        dtype: DT_INT32
        tensor_shape {
        }
        int_val: 2
      }
    }
  }
}
node {
  name: "adanet/iteration_0/subnetwork_t0_1_layer_dnn/metrics/average_loss/broadcast_weights/assert_broadcastable/static_scalar_check_success"
  op: "NoOp"
}
node {
  name: "adanet/iteration_0/subnetwork_t0_1_layer_dnn/metrics/average_loss/broadcast_weights/ones_like/Shape"
  op: "Shape"
  input: "adanet/iteration_0/subnetwork_t0_1_layer_dnn/head/ExpandDims"
  input: "^adanet/iteration_0/subnetwork_t0_1_layer_dnn/metrics/average_loss/broadcast_weights/assert_broadcastable/static_scalar_check_success"
  attr {
    key: "T"
    value {
      type: DT_FLOAT
    }
  }
  attr {
    key: "_output_shapes"
    value {
      list {
        shape {
          dim {
            size: 2
          }
        }
      }
    }
  }
  attr {
    key: "out_type"
    value {
      type: DT_INT32
    }
  }
}
node {
  name: "adanet/iteration_0/subnetwork_t0_1_layer_dnn/metrics/average_loss/broadcast_weights/ones_like/Const"
  op: "Const"
  input: "^adanet/iteration_0/subnetwork_t0_1_layer_dnn/metrics/average_loss/broadcast_weights/assert_broadcastable/static_scalar_check_success"
  attr {
    key: "_output_shapes"
    value {
      list {
        shape {
        }
      }
    }
  }
  attr {
    key: "dtype"
    value {
      type: DT_FLOAT
    }
  }
  attr {
    key: "value"
    value {
      tensor {
        dtype: DT_FLOAT
        tensor_shape {
        }
        float_val: 1.0
      }
    }
  }
}
node {
  name: "adanet/iteration_0/subnetwork_t0_1_layer_dnn/metrics/average_loss/broadcast_weights/ones_like"
  op: "Fill"
  input: "adanet/iteration_0/subnetwork_t0_1_layer_dnn/metrics/average_loss/broadcast_weights/ones_like/Shape"
  input: "adanet/iteration_0/subnetwork_t0_1_layer_dnn/metrics/average_loss/broadcast_weights/ones_like/Const"
  attr {
    key: "T"
    value {
      type: DT_FLOAT
    }
  }
  attr {
    key: "_output_shapes"
    value {
      list {
        shape {
          dim {
            size: -1
          }
          dim {
            size: 1
          }
        }
      }
    }
  }
  attr {
    key: "index_type"
    value {
      type: DT_INT32
    }
  }
}
node {
  name: "adanet/iteration_0/subnetwork_t0_1_layer_dnn/metrics/average_loss/broadcast_weights"
  op: "Mul"
  input: "adanet/iteration_0/subnetwork_t0_1_layer_dnn/metrics/average_loss/Const"
  input: "adanet/iteration_0/subnetwork_t0_1_layer_dnn/metrics/average_loss/broadcast_weights/ones_like"
  attr {
    key: "T"
    value {
      type: DT_FLOAT
    }
  }
  attr {
    key: "_output_shapes"
    value {
      list {
        shape {
          dim {
            size: -1
          }
          dim {
            size: 1
          }
        }
      }
    }
  }
}
node {
  name: "adanet/iteration_0/subnetwork_t0_1_layer_dnn/metrics/average_loss/Mul"
  op: "Mul"
  input: "adanet/iteration_0/subnetwork_t0_1_layer_dnn/head/ExpandDims"
  input: "adanet/iteration_0/subnetwork_t0_1_layer_dnn/metrics/average_loss/broadcast_weights"
  attr {
    key: "T"
    value {
      type: DT_FLOAT
    }
  }
  attr {
    key: "_output_shapes"
    value {
      list {
        shape {
          dim {
            size: -1
          }
          dim {
            size: 1
          }
        }
      }
    }
  }
}
node {
  name: "adanet/iteration_0/subnetwork_t0_1_layer_dnn/metrics/average_loss/Const_1"
  op: "Const"
  attr {
    key: "_output_shapes"
    value {
      list {
        shape {
          dim {
            size: 2
          }
        }
      }
    }
  }
  attr {
    key: "dtype"
    value {
      type: DT_INT32
    }
  }
  attr {
    key: "value"
    value {
      tensor {
        dtype: DT_INT32
        tensor_shape {
          dim {
            size: 2
          }
        }
        tensor_content: "\000\000\000\000\001\000\000\000"
      }
    }
  }
}
node {
  name: "adanet/iteration_0/subnetwork_t0_1_layer_dnn/metrics/average_loss/Sum"
  op: "Sum"
  input: "adanet/iteration_0/subnetwork_t0_1_layer_dnn/metrics/average_loss/broadcast_weights"
  input: "adanet/iteration_0/subnetwork_t0_1_layer_dnn/metrics/average_loss/Const_1"
  attr {
    key: "T"
    value {
      type: DT_FLOAT
    }
  }
  attr {
    key: "Tidx"
    value {
      type: DT_INT32
    }
  }
  attr {
    key: "_output_shapes"
    value {
      list {
        shape {
        }
      }
    }
  }
  attr {
    key: "keep_dims"
    value {
      b: false
    }
  }
}
node {
  name: "adanet/iteration_0/subnetwork_t0_1_layer_dnn/metrics/average_loss/Const_2"
  op: "Const"
  attr {
    key: "_output_shapes"
    value {
      list {
        shape {
          dim {
            size: 2
          }
        }
      }
    }
  }
  attr {
    key: "dtype"
    value {
      type: DT_INT32
    }
  }
  attr {
    key: "value"
    value {
      tensor {
        dtype: DT_INT32
        tensor_shape {
          dim {
            size: 2
          }
        }
        tensor_content: "\000\000\000\000\001\000\000\000"
      }
    }
  }
}
node {
  name: "adanet/iteration_0/subnetwork_t0_1_layer_dnn/metrics/average_loss/Sum_1"
  op: "Sum"
  input: "adanet/iteration_0/subnetwork_t0_1_layer_dnn/metrics/average_loss/Mul"
  input: "adanet/iteration_0/subnetwork_t0_1_layer_dnn/metrics/average_loss/Const_2"
  attr {
    key: "T"
    value {
      type: DT_FLOAT
    }
  }
  attr {
    key: "Tidx"
    value {
      type: DT_INT32
    }
  }
  attr {
    key: "_output_shapes"
    value {
      list {
        shape {
        }
      }
    }
  }
  attr {
    key: "keep_dims"
    value {
      b: false
    }
  }
}
node {
  name: "adanet/iteration_0/subnetwork_t0_1_layer_dnn/metrics/average_loss/AssignAdd"
  op: "AssignAdd"
  input: "adanet/iteration_0/subnetwork_t0_1_layer_dnn/metrics/average_loss/total"
  input: "adanet/iteration_0/subnetwork_t0_1_layer_dnn/metrics/average_loss/Sum_1"
  attr {
    key: "T"
    value {
      type: DT_FLOAT
    }
  }
  attr {
    key: "_class"
    value {
      list {
        s: "loc:@adanet/iteration_0/subnetwork_t0_1_layer_dnn/metrics/average_loss/total"
      }
    }
  }
  attr {
    key: "_output_shapes"
    value {
      list {
        shape {
        }
      }
    }
  }
  attr {
    key: "use_locking"
    value {
      b: false
    }
  }
}
node {
  name: "adanet/iteration_0/subnetwork_t0_1_layer_dnn/metrics/average_loss/AssignAdd_1"
  op: "AssignAdd"
  input: "adanet/iteration_0/subnetwork_t0_1_layer_dnn/metrics/average_loss/count"
  input: "adanet/iteration_0/subnetwork_t0_1_layer_dnn/metrics/average_loss/Sum"
  input: "^adanet/iteration_0/subnetwork_t0_1_layer_dnn/metrics/average_loss/Mul"
  attr {
    key: "T"
    value {
      type: DT_FLOAT
    }
  }
  attr {
    key: "_class"
    value {
      list {
        s: "loc:@adanet/iteration_0/subnetwork_t0_1_layer_dnn/metrics/average_loss/count"
      }
    }
  }
  attr {
    key: "_output_shapes"
    value {
      list {
        shape {
        }
      }
    }
  }
  attr {
    key: "use_locking"
    value {
      b: false
    }
  }
}
node {
  name: "adanet/iteration_0/subnetwork_t0_1_layer_dnn/metrics/average_loss/Maximum/y"
  op: "Const"
  attr {
    key: "_output_shapes"
    value {
      list {
        shape {
        }
      }
    }
  }
  attr {
    key: "dtype"
    value {
      type: DT_FLOAT
    }
  }
  attr {
    key: "value"
    value {
      tensor {
        dtype: DT_FLOAT
        tensor_shape {
        }
        float_val: 0.0
      }
    }
  }
}
node {
  name: "adanet/iteration_0/subnetwork_t0_1_layer_dnn/metrics/average_loss/Maximum"
  op: "Maximum"
  input: "adanet/iteration_0/subnetwork_t0_1_layer_dnn/metrics/average_loss/count/read"
  input: "adanet/iteration_0/subnetwork_t0_1_layer_dnn/metrics/average_loss/Maximum/y"
  attr {
    key: "T"
    value {
      type: DT_FLOAT
    }
  }
  attr {
    key: "_output_shapes"
    value {
      list {
        shape {
        }
      }
    }
  }
}
node {
  name: "adanet/iteration_0/subnetwork_t0_1_layer_dnn/metrics/average_loss/value"
  op: "DivNoNan"
  input: "adanet/iteration_0/subnetwork_t0_1_layer_dnn/metrics/average_loss/total/read"
  input: "adanet/iteration_0/subnetwork_t0_1_layer_dnn/metrics/average_loss/Maximum"
  attr {
    key: "T"
    value {
      type: DT_FLOAT
    }
  }
  attr {
    key: "_output_shapes"
    value {
      list {
        shape {
        }
      }
    }
  }
}
node {
  name: "adanet/iteration_0/subnetwork_t0_1_layer_dnn/metrics/average_loss/Maximum_1/y"
  op: "Const"
  attr {
    key: "_output_shapes"
    value {
      list {
        shape {
        }
      }
    }
  }
  attr {
    key: "dtype"
    value {
      type: DT_FLOAT
    }
  }
  attr {
    key: "value"
    value {
      tensor {
        dtype: DT_FLOAT
        tensor_shape {
        }
        float_val: 0.0
      }
    }
  }
}
node {
  name: "adanet/iteration_0/subnetwork_t0_1_layer_dnn/metrics/average_loss/Maximum_1"
  op: "Maximum"
  input: "adanet/iteration_0/subnetwork_t0_1_layer_dnn/metrics/average_loss/AssignAdd_1"
  input: "adanet/iteration_0/subnetwork_t0_1_layer_dnn/metrics/average_loss/Maximum_1/y"
  attr {
    key: "T"
    value {
      type: DT_FLOAT
    }
  }
  attr {
    key: "_output_shapes"
    value {
      list {
        shape {
        }
      }
    }
  }
}
node {
  name: "adanet/iteration_0/subnetwork_t0_1_layer_dnn/metrics/average_loss/update_op"
  op: "DivNoNan"
  input: "adanet/iteration_0/subnetwork_t0_1_layer_dnn/metrics/average_loss/AssignAdd"
  input: "adanet/iteration_0/subnetwork_t0_1_layer_dnn/metrics/average_loss/Maximum_1"
  attr {
    key: "T"
    value {
      type: DT_FLOAT
    }
  }
  attr {
    key: "_output_shapes"
    value {
      list {
        shape {
        }
      }
    }
  }
}
node {
  name: "adanet/iteration_0/subnetwork_t0_1_layer_dnn/metrics/Const"
  op: "Const"
  attr {
    key: "_output_shapes"
    value {
      list {
        shape {
        }
      }
    }
  }
  attr {
    key: "dtype"
    value {
      type: DT_FLOAT
    }
  }
  attr {
    key: "value"
    value {
      tensor {
        dtype: DT_FLOAT
        tensor_shape {
        }
        float_val: 1.0
      }
    }
  }
}
node {
  name: "adanet/iteration_0/subnetwork_t0_1_layer_dnn/metrics/Cast"
  op: "Cast"
  input: "adanet/iteration_0/subnetwork_t0_1_layer_dnn/head/predictions/ExpandDims"
  attr {
    key: "DstT"
    value {
      type: DT_INT32
    }
  }
  attr {
    key: "SrcT"
    value {
      type: DT_INT64
    }
  }
  attr {
    key: "Truncate"
    value {
      b: false
    }
  }
  attr {
    key: "_output_shapes"
    value {
      list {
        shape {
          dim {
            size: -1
          }
          dim {
            size: 1
          }
        }
      }
    }
  }
}
node {
  name: "adanet/iteration_0/subnetwork_t0_1_layer_dnn/metrics/Equal"
  op: "Equal"
  input: "adanet/iteration_0/subnetwork_t0_1_layer_dnn/metrics/Cast"
  input: "adanet/iteration_0/subnetwork_t0_1_layer_dnn/head/assert_range/Identity"
  attr {
    key: "T"
    value {
      type: DT_INT32
    }
  }
  attr {
    key: "_output_shapes"
    value {
      list {
        shape {
          dim {
            size: -1
          }
          dim {
            size: 1
          }
        }
      }
    }
  }
}
node {
  name: "adanet/iteration_0/subnetwork_t0_1_layer_dnn/metrics/ToFloat"
  op: "Cast"
  input: "adanet/iteration_0/subnetwork_t0_1_layer_dnn/metrics/Equal"
  attr {
    key: "DstT"
    value {
      type: DT_FLOAT
    }
  }
  attr {
    key: "SrcT"
    value {
      type: DT_BOOL
    }
  }
  attr {
    key: "Truncate"
    value {
      b: false
    }
  }
  attr {
    key: "_output_shapes"
    value {
      list {
        shape {
          dim {
            size: -1
          }
          dim {
            size: 1
          }
        }
      }
    }
  }
}
node {
  name: "adanet/iteration_0/subnetwork_t0_1_layer_dnn/metrics/accuracy/total/Initializer/zeros"
  op: "Const"
  attr {
    key: "_class"
    value {
      list {
        s: "loc:@adanet/iteration_0/subnetwork_t0_1_layer_dnn/metrics/accuracy/total"
      }
    }
  }
  attr {
    key: "_output_shapes"
    value {
      list {
        shape {
        }
      }
    }
  }
  attr {
    key: "dtype"
    value {
      type: DT_FLOAT
    }
  }
  attr {
    key: "value"
    value {
      tensor {
        dtype: DT_FLOAT
        tensor_shape {
        }
        float_val: 0.0
      }
    }
  }
}
node {
  name: "adanet/iteration_0/subnetwork_t0_1_layer_dnn/metrics/accuracy/total"
  op: "VariableV2"
  attr {
    key: "_class"
    value {
      list {
        s: "loc:@adanet/iteration_0/subnetwork_t0_1_layer_dnn/metrics/accuracy/total"
      }
    }
  }
  attr {
    key: "_output_shapes"
    value {
      list {
        shape {
        }
      }
    }
  }
  attr {
    key: "container"
    value {
      s: ""
    }
  }
  attr {
    key: "dtype"
    value {
      type: DT_FLOAT
    }
  }
  attr {
    key: "shape"
    value {
      shape {
      }
    }
  }
  attr {
    key: "shared_name"
    value {
      s: ""
    }
  }
}
node {
  name: "adanet/iteration_0/subnetwork_t0_1_layer_dnn/metrics/accuracy/total/Assign"
  op: "Assign"
  input: "adanet/iteration_0/subnetwork_t0_1_layer_dnn/metrics/accuracy/total"
  input: "adanet/iteration_0/subnetwork_t0_1_layer_dnn/metrics/accuracy/total/Initializer/zeros"
  attr {
    key: "T"
    value {
      type: DT_FLOAT
    }
  }
  attr {
    key: "_class"
    value {
      list {
        s: "loc:@adanet/iteration_0/subnetwork_t0_1_layer_dnn/metrics/accuracy/total"
      }
    }
  }
  attr {
    key: "_output_shapes"
    value {
      list {
        shape {
        }
      }
    }
  }
  attr {
    key: "use_locking"
    value {
      b: true
    }
  }
  attr {
    key: "validate_shape"
    value {
      b: true
    }
  }
}
node {
  name: "adanet/iteration_0/subnetwork_t0_1_layer_dnn/metrics/accuracy/total/read"
  op: "Identity"
  input: "adanet/iteration_0/subnetwork_t0_1_layer_dnn/metrics/accuracy/total"
  attr {
    key: "T"
    value {
      type: DT_FLOAT
    }
  }
  attr {
    key: "_class"
    value {
      list {
        s: "loc:@adanet/iteration_0/subnetwork_t0_1_layer_dnn/metrics/accuracy/total"
      }
    }
  }
  attr {
    key: "_output_shapes"
    value {
      list {
        shape {
        }
      }
    }
  }
}
node {
  name: "adanet/iteration_0/subnetwork_t0_1_layer_dnn/metrics/accuracy/count/Initializer/zeros"
  op: "Const"
  attr {
    key: "_class"
    value {
      list {
        s: "loc:@adanet/iteration_0/subnetwork_t0_1_layer_dnn/metrics/accuracy/count"
      }
    }
  }
  attr {
    key: "_output_shapes"
    value {
      list {
        shape {
        }
      }
    }
  }
  attr {
    key: "dtype"
    value {
      type: DT_FLOAT
    }
  }
  attr {
    key: "value"
    value {
      tensor {
        dtype: DT_FLOAT
        tensor_shape {
        }
        float_val: 0.0
      }
    }
  }
}
node {
  name: "adanet/iteration_0/subnetwork_t0_1_layer_dnn/metrics/accuracy/count"
  op: "VariableV2"
  attr {
    key: "_class"
    value {
      list {
        s: "loc:@adanet/iteration_0/subnetwork_t0_1_layer_dnn/metrics/accuracy/count"
      }
    }
  }
  attr {
    key: "_output_shapes"
    value {
      list {
        shape {
        }
      }
    }
  }
  attr {
    key: "container"
    value {
      s: ""
    }
  }
  attr {
    key: "dtype"
    value {
      type: DT_FLOAT
    }
  }
  attr {
    key: "shape"
    value {
      shape {
      }
    }
  }
  attr {
    key: "shared_name"
    value {
      s: ""
    }
  }
}
node {
  name: "adanet/iteration_0/subnetwork_t0_1_layer_dnn/metrics/accuracy/count/Assign"
  op: "Assign"
  input: "adanet/iteration_0/subnetwork_t0_1_layer_dnn/metrics/accuracy/count"
  input: "adanet/iteration_0/subnetwork_t0_1_layer_dnn/metrics/accuracy/count/Initializer/zeros"
  attr {
    key: "T"
    value {
      type: DT_FLOAT
    }
  }
  attr {
    key: "_class"
    value {
      list {
        s: "loc:@adanet/iteration_0/subnetwork_t0_1_layer_dnn/metrics/accuracy/count"
      }
    }
  }
  attr {
    key: "_output_shapes"
    value {
      list {
        shape {
        }
      }
    }
  }
  attr {
    key: "use_locking"
    value {
      b: true
    }
  }
  attr {
    key: "validate_shape"
    value {
      b: true
    }
  }
}
node {
  name: "adanet/iteration_0/subnetwork_t0_1_layer_dnn/metrics/accuracy/count/read"
  op: "Identity"
  input: "adanet/iteration_0/subnetwork_t0_1_layer_dnn/metrics/accuracy/count"
  attr {
    key: "T"
    value {
      type: DT_FLOAT
    }
  }
  attr {
    key: "_class"
    value {
      list {
        s: "loc:@adanet/iteration_0/subnetwork_t0_1_layer_dnn/metrics/accuracy/count"
      }
    }
  }
  attr {
    key: "_output_shapes"
    value {
      list {
        shape {
        }
      }
    }
  }
}
node {
  name: "adanet/iteration_0/subnetwork_t0_1_layer_dnn/metrics/accuracy/broadcast_weights/assert_broadcastable/weights/shape"
  op: "Const"
  attr {
    key: "_output_shapes"
    value {
      list {
        shape {
          dim {
          }
        }
      }
    }
  }
  attr {
    key: "dtype"
    value {
      type: DT_INT32
    }
  }
  attr {
    key: "value"
    value {
      tensor {
        dtype: DT_INT32
        tensor_shape {
          dim {
          }
        }
      }
    }
  }
}
node {
  name: "adanet/iteration_0/subnetwork_t0_1_layer_dnn/metrics/accuracy/broadcast_weights/assert_broadcastable/weights/rank"
  op: "Const"
  attr {
    key: "_output_shapes"
    value {
      list {
        shape {
        }
      }
    }
  }
  attr {
    key: "dtype"
    value {
      type: DT_INT32
    }
  }
  attr {
    key: "value"
    value {
      tensor {
        dtype: DT_INT32
        tensor_shape {
        }
        int_val: 0
      }
    }
  }
}
node {
  name: "adanet/iteration_0/subnetwork_t0_1_layer_dnn/metrics/accuracy/broadcast_weights/assert_broadcastable/values/shape"
  op: "Shape"
  input: "adanet/iteration_0/subnetwork_t0_1_layer_dnn/metrics/ToFloat"
  attr {
    key: "T"
    value {
      type: DT_FLOAT
    }
  }
  attr {
    key: "_output_shapes"
    value {
      list {
        shape {
          dim {
            size: 2
          }
        }
      }
    }
  }
  attr {
    key: "out_type"
    value {
      type: DT_INT32
    }
  }
}
node {
  name: "adanet/iteration_0/subnetwork_t0_1_layer_dnn/metrics/accuracy/broadcast_weights/assert_broadcastable/values/rank"
  op: "Const"
  attr {
    key: "_output_shapes"
    value {
      list {
        shape {
        }
      }
    }
  }
  attr {
    key: "dtype"
    value {
      type: DT_INT32
    }
  }
  attr {
    key: "value"
    value {
      tensor {
        dtype: DT_INT32
        tensor_shape {
        }
        int_val: 2
      }
    }
  }
}
node {
  name: "adanet/iteration_0/subnetwork_t0_1_layer_dnn/metrics/accuracy/broadcast_weights/assert_broadcastable/static_scalar_check_success"
  op: "NoOp"
}
node {
  name: "adanet/iteration_0/subnetwork_t0_1_layer_dnn/metrics/accuracy/broadcast_weights/ones_like/Shape"
  op: "Shape"
  input: "adanet/iteration_0/subnetwork_t0_1_layer_dnn/metrics/ToFloat"
  input: "^adanet/iteration_0/subnetwork_t0_1_layer_dnn/metrics/accuracy/broadcast_weights/assert_broadcastable/static_scalar_check_success"
  attr {
    key: "T"
    value {
      type: DT_FLOAT
    }
  }
  attr {
    key: "_output_shapes"
    value {
      list {
        shape {
          dim {
            size: 2
          }
        }
      }
    }
  }
  attr {
    key: "out_type"
    value {
      type: DT_INT32
    }
  }
}
node {
  name: "adanet/iteration_0/subnetwork_t0_1_layer_dnn/metrics/accuracy/broadcast_weights/ones_like/Const"
  op: "Const"
  input: "^adanet/iteration_0/subnetwork_t0_1_layer_dnn/metrics/accuracy/broadcast_weights/assert_broadcastable/static_scalar_check_success"
  attr {
    key: "_output_shapes"
    value {
      list {
        shape {
        }
      }
    }
  }
  attr {
    key: "dtype"
    value {
      type: DT_FLOAT
    }
  }
  attr {
    key: "value"
    value {
      tensor {
        dtype: DT_FLOAT
        tensor_shape {
        }
        float_val: 1.0
      }
    }
  }
}
node {
  name: "adanet/iteration_0/subnetwork_t0_1_layer_dnn/metrics/accuracy/broadcast_weights/ones_like"
  op: "Fill"
  input: "adanet/iteration_0/subnetwork_t0_1_layer_dnn/metrics/accuracy/broadcast_weights/ones_like/Shape"
  input: "adanet/iteration_0/subnetwork_t0_1_layer_dnn/metrics/accuracy/broadcast_weights/ones_like/Const"
  attr {
    key: "T"
    value {
      type: DT_FLOAT
    }
  }
  attr {
    key: "_output_shapes"
    value {
      list {
        shape {
          dim {
            size: -1
          }
          dim {
            size: 1
          }
        }
      }
    }
  }
  attr {
    key: "index_type"
    value {
      type: DT_INT32
    }
  }
}
node {
  name: "adanet/iteration_0/subnetwork_t0_1_layer_dnn/metrics/accuracy/broadcast_weights"
  op: "Mul"
  input: "adanet/iteration_0/subnetwork_t0_1_layer_dnn/metrics/Const"
  input: "adanet/iteration_0/subnetwork_t0_1_layer_dnn/metrics/accuracy/broadcast_weights/ones_like"
  attr {
    key: "T"
    value {
      type: DT_FLOAT
    }
  }
  attr {
    key: "_output_shapes"
    value {
      list {
        shape {
          dim {
            size: -1
          }
          dim {
            size: 1
          }
        }
      }
    }
  }
}
node {
  name: "adanet/iteration_0/subnetwork_t0_1_layer_dnn/metrics/accuracy/Mul"
  op: "Mul"
  input: "adanet/iteration_0/subnetwork_t0_1_layer_dnn/metrics/ToFloat"
  input: "adanet/iteration_0/subnetwork_t0_1_layer_dnn/metrics/accuracy/broadcast_weights"
  attr {
    key: "T"
    value {
      type: DT_FLOAT
    }
  }
  attr {
    key: "_output_shapes"
    value {
      list {
        shape {
          dim {
            size: -1
          }
          dim {
            size: 1
          }
        }
      }
    }
  }
}
node {
  name: "adanet/iteration_0/subnetwork_t0_1_layer_dnn/metrics/accuracy/Const"
  op: "Const"
  attr {
    key: "_output_shapes"
    value {
      list {
        shape {
          dim {
            size: 2
          }
        }
      }
    }
  }
  attr {
    key: "dtype"
    value {
      type: DT_INT32
    }
  }
  attr {
    key: "value"
    value {
      tensor {
        dtype: DT_INT32
        tensor_shape {
          dim {
            size: 2
          }
        }
        tensor_content: "\000\000\000\000\001\000\000\000"
      }
    }
  }
}
node {
  name: "adanet/iteration_0/subnetwork_t0_1_layer_dnn/metrics/accuracy/Sum"
  op: "Sum"
  input: "adanet/iteration_0/subnetwork_t0_1_layer_dnn/metrics/accuracy/broadcast_weights"
  input: "adanet/iteration_0/subnetwork_t0_1_layer_dnn/metrics/accuracy/Const"
  attr {
    key: "T"
    value {
      type: DT_FLOAT
    }
  }
  attr {
    key: "Tidx"
    value {
      type: DT_INT32
    }
  }
  attr {
    key: "_output_shapes"
    value {
      list {
        shape {
        }
      }
    }
  }
  attr {
    key: "keep_dims"
    value {
      b: false
    }
  }
}
node {
  name: "adanet/iteration_0/subnetwork_t0_1_layer_dnn/metrics/accuracy/Const_1"
  op: "Const"
  attr {
    key: "_output_shapes"
    value {
      list {
        shape {
          dim {
            size: 2
          }
        }
      }
    }
  }
  attr {
    key: "dtype"
    value {
      type: DT_INT32
    }
  }
  attr {
    key: "value"
    value {
      tensor {
        dtype: DT_INT32
        tensor_shape {
          dim {
            size: 2
          }
        }
        tensor_content: "\000\000\000\000\001\000\000\000"
      }
    }
  }
}
node {
  name: "adanet/iteration_0/subnetwork_t0_1_layer_dnn/metrics/accuracy/Sum_1"
  op: "Sum"
  input: "adanet/iteration_0/subnetwork_t0_1_layer_dnn/metrics/accuracy/Mul"
  input: "adanet/iteration_0/subnetwork_t0_1_layer_dnn/metrics/accuracy/Const_1"
  attr {
    key: "T"
    value {
      type: DT_FLOAT
    }
  }
  attr {
    key: "Tidx"
    value {
      type: DT_INT32
    }
  }
  attr {
    key: "_output_shapes"
    value {
      list {
        shape {
        }
      }
    }
  }
  attr {
    key: "keep_dims"
    value {
      b: false
    }
  }
}
node {
  name: "adanet/iteration_0/subnetwork_t0_1_layer_dnn/metrics/accuracy/AssignAdd"
  op: "AssignAdd"
  input: "adanet/iteration_0/subnetwork_t0_1_layer_dnn/metrics/accuracy/total"
  input: "adanet/iteration_0/subnetwork_t0_1_layer_dnn/metrics/accuracy/Sum_1"
  attr {
    key: "T"
    value {
      type: DT_FLOAT
    }
  }
  attr {
    key: "_class"
    value {
      list {
        s: "loc:@adanet/iteration_0/subnetwork_t0_1_layer_dnn/metrics/accuracy/total"
      }
    }
  }
  attr {
    key: "_output_shapes"
    value {
      list {
        shape {
        }
      }
    }
  }
  attr {
    key: "use_locking"
    value {
      b: false
    }
  }
}
node {
  name: "adanet/iteration_0/subnetwork_t0_1_layer_dnn/metrics/accuracy/AssignAdd_1"
  op: "AssignAdd"
  input: "adanet/iteration_0/subnetwork_t0_1_layer_dnn/metrics/accuracy/count"
  input: "adanet/iteration_0/subnetwork_t0_1_layer_dnn/metrics/accuracy/Sum"
  input: "^adanet/iteration_0/subnetwork_t0_1_layer_dnn/metrics/accuracy/Mul"
  attr {
    key: "T"
    value {
      type: DT_FLOAT
    }
  }
  attr {
    key: "_class"
    value {
      list {
        s: "loc:@adanet/iteration_0/subnetwork_t0_1_layer_dnn/metrics/accuracy/count"
      }
    }
  }
  attr {
    key: "_output_shapes"
    value {
      list {
        shape {
        }
      }
    }
  }
  attr {
    key: "use_locking"
    value {
      b: false
    }
  }
}
node {
  name: "adanet/iteration_0/subnetwork_t0_1_layer_dnn/metrics/accuracy/Maximum/y"
  op: "Const"
  attr {
    key: "_output_shapes"
    value {
      list {
        shape {
        }
      }
    }
  }
  attr {
    key: "dtype"
    value {
      type: DT_FLOAT
    }
  }
  attr {
    key: "value"
    value {
      tensor {
        dtype: DT_FLOAT
        tensor_shape {
        }
        float_val: 0.0
      }
    }
  }
}
node {
  name: "adanet/iteration_0/subnetwork_t0_1_layer_dnn/metrics/accuracy/Maximum"
  op: "Maximum"
  input: "adanet/iteration_0/subnetwork_t0_1_layer_dnn/metrics/accuracy/count/read"
  input: "adanet/iteration_0/subnetwork_t0_1_layer_dnn/metrics/accuracy/Maximum/y"
  attr {
    key: "T"
    value {
      type: DT_FLOAT
    }
  }
  attr {
    key: "_output_shapes"
    value {
      list {
        shape {
        }
      }
    }
  }
}
node {
  name: "adanet/iteration_0/subnetwork_t0_1_layer_dnn/metrics/accuracy/value"
  op: "DivNoNan"
  input: "adanet/iteration_0/subnetwork_t0_1_layer_dnn/metrics/accuracy/total/read"
  input: "adanet/iteration_0/subnetwork_t0_1_layer_dnn/metrics/accuracy/Maximum"
  attr {
    key: "T"
    value {
      type: DT_FLOAT
    }
  }
  attr {
    key: "_output_shapes"
    value {
      list {
        shape {
        }
      }
    }
  }
}
node {
  name: "adanet/iteration_0/subnetwork_t0_1_layer_dnn/metrics/accuracy/Maximum_1/y"
  op: "Const"
  attr {
    key: "_output_shapes"
    value {
      list {
        shape {
        }
      }
    }
  }
  attr {
    key: "dtype"
    value {
      type: DT_FLOAT
    }
  }
  attr {
    key: "value"
    value {
      tensor {
        dtype: DT_FLOAT
        tensor_shape {
        }
        float_val: 0.0
      }
    }
  }
}
node {
  name: "adanet/iteration_0/subnetwork_t0_1_layer_dnn/metrics/accuracy/Maximum_1"
  op: "Maximum"
  input: "adanet/iteration_0/subnetwork_t0_1_layer_dnn/metrics/accuracy/AssignAdd_1"
  input: "adanet/iteration_0/subnetwork_t0_1_layer_dnn/metrics/accuracy/Maximum_1/y"
  attr {
    key: "T"
    value {
      type: DT_FLOAT
    }
  }
  attr {
    key: "_output_shapes"
    value {
      list {
        shape {
        }
      }
    }
  }
}
node {
  name: "adanet/iteration_0/subnetwork_t0_1_layer_dnn/metrics/accuracy/update_op"
  op: "DivNoNan"
  input: "adanet/iteration_0/subnetwork_t0_1_layer_dnn/metrics/accuracy/AssignAdd"
  input: "adanet/iteration_0/subnetwork_t0_1_layer_dnn/metrics/accuracy/Maximum_1"
  attr {
    key: "T"
    value {
      type: DT_FLOAT
    }
  }
  attr {
    key: "_output_shapes"
    value {
      list {
        shape {
        }
      }
    }
  }
}
node {
  name: "adanet/iteration_0/subnetwork_t0_1_layer_dnn/mean/total/Initializer/zeros"
  op: "Const"
  attr {
    key: "_class"
    value {
      list {
        s: "loc:@adanet/iteration_0/subnetwork_t0_1_layer_dnn/mean/total"
      }
    }
  }
  attr {
    key: "_output_shapes"
    value {
      list {
        shape {
        }
      }
    }
  }
  attr {
    key: "dtype"
    value {
      type: DT_FLOAT
    }
  }
  attr {
    key: "value"
    value {
      tensor {
        dtype: DT_FLOAT
        tensor_shape {
        }
        float_val: 0.0
      }
    }
  }
}
node {
  name: "adanet/iteration_0/subnetwork_t0_1_layer_dnn/mean/total"
  op: "VariableV2"
  attr {
    key: "_class"
    value {
      list {
        s: "loc:@adanet/iteration_0/subnetwork_t0_1_layer_dnn/mean/total"
      }
    }
  }
  attr {
    key: "_output_shapes"
    value {
      list {
        shape {
        }
      }
    }
  }
  attr {
    key: "container"
    value {
      s: ""
    }
  }
  attr {
    key: "dtype"
    value {
      type: DT_FLOAT
    }
  }
  attr {
    key: "shape"
    value {
      shape {
      }
    }
  }
  attr {
    key: "shared_name"
    value {
      s: ""
    }
  }
}
node {
  name: "adanet/iteration_0/subnetwork_t0_1_layer_dnn/mean/total/Assign"
  op: "Assign"
  input: "adanet/iteration_0/subnetwork_t0_1_layer_dnn/mean/total"
  input: "adanet/iteration_0/subnetwork_t0_1_layer_dnn/mean/total/Initializer/zeros"
  attr {
    key: "T"
    value {
      type: DT_FLOAT
    }
  }
  attr {
    key: "_class"
    value {
      list {
        s: "loc:@adanet/iteration_0/subnetwork_t0_1_layer_dnn/mean/total"
      }
    }
  }
  attr {
    key: "_output_shapes"
    value {
      list {
        shape {
        }
      }
    }
  }
  attr {
    key: "use_locking"
    value {
      b: true
    }
  }
  attr {
    key: "validate_shape"
    value {
      b: true
    }
  }
}
node {
  name: "adanet/iteration_0/subnetwork_t0_1_layer_dnn/mean/total/read"
  op: "Identity"
  input: "adanet/iteration_0/subnetwork_t0_1_layer_dnn/mean/total"
  attr {
    key: "T"
    value {
      type: DT_FLOAT
    }
  }
  attr {
    key: "_class"
    value {
      list {
        s: "loc:@adanet/iteration_0/subnetwork_t0_1_layer_dnn/mean/total"
      }
    }
  }
  attr {
    key: "_output_shapes"
    value {
      list {
        shape {
        }
      }
    }
  }
}
node {
  name: "adanet/iteration_0/subnetwork_t0_1_layer_dnn/mean/count/Initializer/zeros"
  op: "Const"
  attr {
    key: "_class"
    value {
      list {
        s: "loc:@adanet/iteration_0/subnetwork_t0_1_layer_dnn/mean/count"
      }
    }
  }
  attr {
    key: "_output_shapes"
    value {
      list {
        shape {
        }
      }
    }
  }
  attr {
    key: "dtype"
    value {
      type: DT_FLOAT
    }
  }
  attr {
    key: "value"
    value {
      tensor {
        dtype: DT_FLOAT
        tensor_shape {
        }
        float_val: 0.0
      }
    }
  }
}
node {
  name: "adanet/iteration_0/subnetwork_t0_1_layer_dnn/mean/count"
  op: "VariableV2"
  attr {
    key: "_class"
    value {
      list {
        s: "loc:@adanet/iteration_0/subnetwork_t0_1_layer_dnn/mean/count"
      }
    }
  }
  attr {
    key: "_output_shapes"
    value {
      list {
        shape {
        }
      }
    }
  }
  attr {
    key: "container"
    value {
      s: ""
    }
  }
  attr {
    key: "dtype"
    value {
      type: DT_FLOAT
    }
  }
  attr {
    key: "shape"
    value {
      shape {
      }
    }
  }
  attr {
    key: "shared_name"
    value {
      s: ""
    }
  }
}
node {
  name: "adanet/iteration_0/subnetwork_t0_1_layer_dnn/mean/count/Assign"
  op: "Assign"
  input: "adanet/iteration_0/subnetwork_t0_1_layer_dnn/mean/count"
  input: "adanet/iteration_0/subnetwork_t0_1_layer_dnn/mean/count/Initializer/zeros"
  attr {
    key: "T"
    value {
      type: DT_FLOAT
    }
  }
  attr {
    key: "_class"
    value {
      list {
        s: "loc:@adanet/iteration_0/subnetwork_t0_1_layer_dnn/mean/count"
      }
    }
  }
  attr {
    key: "_output_shapes"
    value {
      list {
        shape {
        }
      }
    }
  }
  attr {
    key: "use_locking"
    value {
      b: true
    }
  }
  attr {
    key: "validate_shape"
    value {
      b: true
    }
  }
}
node {
  name: "adanet/iteration_0/subnetwork_t0_1_layer_dnn/mean/count/read"
  op: "Identity"
  input: "adanet/iteration_0/subnetwork_t0_1_layer_dnn/mean/count"
  attr {
    key: "T"
    value {
      type: DT_FLOAT
    }
  }
  attr {
    key: "_class"
    value {
      list {
        s: "loc:@adanet/iteration_0/subnetwork_t0_1_layer_dnn/mean/count"
      }
    }
  }
  attr {
    key: "_output_shapes"
    value {
      list {
        shape {
        }
      }
    }
  }
}
node {
  name: "adanet/iteration_0/subnetwork_t0_1_layer_dnn/mean/Size"
  op: "Const"
  attr {
    key: "_output_shapes"
    value {
      list {
        shape {
        }
      }
    }
  }
  attr {
    key: "dtype"
    value {
      type: DT_INT32
    }
  }
  attr {
    key: "value"
    value {
      tensor {
        dtype: DT_INT32
        tensor_shape {
        }
        int_val: 1
      }
    }
  }
}
node {
  name: "adanet/iteration_0/subnetwork_t0_1_layer_dnn/mean/ToFloat"
  op: "Cast"
  input: "adanet/iteration_0/subnetwork_t0_1_layer_dnn/mean/Size"
  attr {
    key: "DstT"
    value {
      type: DT_FLOAT
    }
  }
  attr {
    key: "SrcT"
    value {
      type: DT_INT32
    }
  }
  attr {
    key: "Truncate"
    value {
      b: false
    }
  }
  attr {
    key: "_output_shapes"
    value {
      list {
        shape {
        }
      }
    }
  }
}
node {
  name: "adanet/iteration_0/subnetwork_t0_1_layer_dnn/mean/Const"
  op: "Const"
  attr {
    key: "_output_shapes"
    value {
      list {
        shape {
          dim {
          }
        }
      }
    }
  }
  attr {
    key: "dtype"
    value {
      type: DT_INT32
    }
  }
  attr {
    key: "value"
    value {
      tensor {
        dtype: DT_INT32
        tensor_shape {
          dim {
          }
        }
      }
    }
  }
}
node {
  name: "adanet/iteration_0/subnetwork_t0_1_layer_dnn/mean/Sum"
  op: "Sum"
  input: "adanet/iteration_0/subnetwork_t0_1_layer_dnn/head/weighted_loss/value"
  input: "adanet/iteration_0/subnetwork_t0_1_layer_dnn/mean/Const"
  attr {
    key: "T"
    value {
      type: DT_FLOAT
    }
  }
  attr {
    key: "Tidx"
    value {
      type: DT_INT32
    }
  }
  attr {
    key: "_output_shapes"
    value {
      list {
        shape {
        }
      }
    }
  }
  attr {
    key: "keep_dims"
    value {
      b: false
    }
  }
}
node {
  name: "adanet/iteration_0/subnetwork_t0_1_layer_dnn/mean/AssignAdd"
  op: "AssignAdd"
  input: "adanet/iteration_0/subnetwork_t0_1_layer_dnn/mean/total"
  input: "adanet/iteration_0/subnetwork_t0_1_layer_dnn/mean/Sum"
  attr {
    key: "T"
    value {
      type: DT_FLOAT
    }
  }
  attr {
    key: "_class"
    value {
      list {
        s: "loc:@adanet/iteration_0/subnetwork_t0_1_layer_dnn/mean/total"
      }
    }
  }
  attr {
    key: "_output_shapes"
    value {
      list {
        shape {
        }
      }
    }
  }
  attr {
    key: "use_locking"
    value {
      b: false
    }
  }
}
node {
  name: "adanet/iteration_0/subnetwork_t0_1_layer_dnn/mean/AssignAdd_1"
  op: "AssignAdd"
  input: "adanet/iteration_0/subnetwork_t0_1_layer_dnn/mean/count"
  input: "adanet/iteration_0/subnetwork_t0_1_layer_dnn/mean/ToFloat"
  input: "^adanet/iteration_0/subnetwork_t0_1_layer_dnn/head/weighted_loss/value"
  attr {
    key: "T"
    value {
      type: DT_FLOAT
    }
  }
  attr {
    key: "_class"
    value {
      list {
        s: "loc:@adanet/iteration_0/subnetwork_t0_1_layer_dnn/mean/count"
      }
    }
  }
  attr {
    key: "_output_shapes"
    value {
      list {
        shape {
        }
      }
    }
  }
  attr {
    key: "use_locking"
    value {
      b: false
    }
  }
}
node {
  name: "adanet/iteration_0/subnetwork_t0_1_layer_dnn/mean/Maximum/y"
  op: "Const"
  attr {
    key: "_output_shapes"
    value {
      list {
        shape {
        }
      }
    }
  }
  attr {
    key: "dtype"
    value {
      type: DT_FLOAT
    }
  }
  attr {
    key: "value"
    value {
      tensor {
        dtype: DT_FLOAT
        tensor_shape {
        }
        float_val: 0.0
      }
    }
  }
}
node {
  name: "adanet/iteration_0/subnetwork_t0_1_layer_dnn/mean/Maximum"
  op: "Maximum"
  input: "adanet/iteration_0/subnetwork_t0_1_layer_dnn/mean/count/read"
  input: "adanet/iteration_0/subnetwork_t0_1_layer_dnn/mean/Maximum/y"
  attr {
    key: "T"
    value {
      type: DT_FLOAT
    }
  }
  attr {
    key: "_output_shapes"
    value {
      list {
        shape {
        }
      }
    }
  }
}
node {
  name: "adanet/iteration_0/subnetwork_t0_1_layer_dnn/mean/value"
  op: "DivNoNan"
  input: "adanet/iteration_0/subnetwork_t0_1_layer_dnn/mean/total/read"
  input: "adanet/iteration_0/subnetwork_t0_1_layer_dnn/mean/Maximum"
  attr {
    key: "T"
    value {
      type: DT_FLOAT
    }
  }
  attr {
    key: "_output_shapes"
    value {
      list {
        shape {
        }
      }
    }
  }
}
node {
  name: "adanet/iteration_0/subnetwork_t0_1_layer_dnn/mean/Maximum_1/y"
  op: "Const"
  attr {
    key: "_output_shapes"
    value {
      list {
        shape {
        }
      }
    }
  }
  attr {
    key: "dtype"
    value {
      type: DT_FLOAT
    }
  }
  attr {
    key: "value"
    value {
      tensor {
        dtype: DT_FLOAT
        tensor_shape {
        }
        float_val: 0.0
      }
    }
  }
}
node {
  name: "adanet/iteration_0/subnetwork_t0_1_layer_dnn/mean/Maximum_1"
  op: "Maximum"
  input: "adanet/iteration_0/subnetwork_t0_1_layer_dnn/mean/AssignAdd_1"
  input: "adanet/iteration_0/subnetwork_t0_1_layer_dnn/mean/Maximum_1/y"
  attr {
    key: "T"
    value {
      type: DT_FLOAT
    }
  }
  attr {
    key: "_output_shapes"
    value {
      list {
        shape {
        }
      }
    }
  }
}
node {
  name: "adanet/iteration_0/subnetwork_t0_1_layer_dnn/mean/update_op"
  op: "DivNoNan"
  input: "adanet/iteration_0/subnetwork_t0_1_layer_dnn/mean/AssignAdd"
  input: "adanet/iteration_0/subnetwork_t0_1_layer_dnn/mean/Maximum_1"
  attr {
    key: "T"
    value {
      type: DT_FLOAT
    }
  }
  attr {
    key: "_output_shapes"
    value {
      list {
        shape {
        }
      }
    }
  }
}
node {
  name: "adanet/iteration_0/subnetwork_t0_1_layer_dnn/Reshape/shape"
  op: "Const"
  attr {
    key: "_output_shapes"
    value {
      list {
        shape {
          dim {
            size: 1
          }
        }
      }
    }
  }
  attr {
    key: "dtype"
    value {
      type: DT_INT32
    }
  }
  attr {
    key: "value"
    value {
      tensor {
        dtype: DT_INT32
        tensor_shape {
          dim {
            size: 1
          }
        }
        int_val: 1
      }
    }
  }
}
node {
  name: "adanet/iteration_0/subnetwork_t0_1_layer_dnn/Reshape"
  op: "Reshape"
  input: "adanet/iteration_0/subnetwork_t0_1_layer_dnn/head/weighted_loss/value"
  input: "adanet/iteration_0/subnetwork_t0_1_layer_dnn/Reshape/shape"
  attr {
    key: "T"
    value {
      type: DT_FLOAT
    }
  }
  attr {
    key: "Tshape"
    value {
      type: DT_INT32
    }
  }
  attr {
    key: "_output_shapes"
    value {
      list {
        shape {
          dim {
            size: 1
          }
        }
      }
    }
  }
}
node {
  name: "adanet/iteration_0/ensemble_t0_1_layer_dnn_grow_complexity_regularized/weighted_subnetwork_0/Shape"
  op: "Shape"
  input: "adanet/iteration_0/subnetwork_t0_1_layer_dnn/dropout/Identity"
  attr {
    key: "T"
    value {
      type: DT_FLOAT
    }
  }
  attr {
    key: "_output_shapes"
    value {
      list {
        shape {
          dim {
            size: 2
          }
        }
      }
    }
  }
  attr {
    key: "out_type"
    value {
      type: DT_INT32
    }
  }
}
node {
  name: "adanet/iteration_0/ensemble_t0_1_layer_dnn_grow_complexity_regularized/weighted_subnetwork_0/strided_slice/stack"
  op: "Const"
  attr {
    key: "_output_shapes"
    value {
      list {
        shape {
          dim {
            size: 1
          }
        }
      }
    }
  }
  attr {
    key: "dtype"
    value {
      type: DT_INT32
    }
  }
  attr {
    key: "value"
    value {
      tensor {
        dtype: DT_INT32
        tensor_shape {
          dim {
            size: 1
          }
        }
        int_val: 0
      }
    }
  }
}
node {
  name: "adanet/iteration_0/ensemble_t0_1_layer_dnn_grow_complexity_regularized/weighted_subnetwork_0/strided_slice/stack_1"
  op: "Const"
  attr {
    key: "_output_shapes"
    value {
      list {
        shape {
          dim {
            size: 1
          }
        }
      }
    }
  }
  attr {
    key: "dtype"
    value {
      type: DT_INT32
    }
  }
  attr {
    key: "value"
    value {
      tensor {
        dtype: DT_INT32
        tensor_shape {
          dim {
            size: 1
          }
        }
        int_val: 1
      }
    }
  }
}
node {
  name: "adanet/iteration_0/ensemble_t0_1_layer_dnn_grow_complexity_regularized/weighted_subnetwork_0/strided_slice/stack_2"
  op: "Const"
  attr {
    key: "_output_shapes"
    value {
      list {
        shape {
          dim {
            size: 1
          }
        }
      }
    }
  }
  attr {
    key: "dtype"
    value {
      type: DT_INT32
    }
  }
  attr {
    key: "value"
    value {
      tensor {
        dtype: DT_INT32
        tensor_shape {
          dim {
            size: 1
          }
        }
        int_val: 1
      }
    }
  }
}
node {
  name: "adanet/iteration_0/ensemble_t0_1_layer_dnn_grow_complexity_regularized/weighted_subnetwork_0/strided_slice"
  op: "StridedSlice"
  input: "adanet/iteration_0/ensemble_t0_1_layer_dnn_grow_complexity_regularized/weighted_subnetwork_0/Shape"
  input: "adanet/iteration_0/ensemble_t0_1_layer_dnn_grow_complexity_regularized/weighted_subnetwork_0/strided_slice/stack"
  input: "adanet/iteration_0/ensemble_t0_1_layer_dnn_grow_complexity_regularized/weighted_subnetwork_0/strided_slice/stack_1"
  input: "adanet/iteration_0/ensemble_t0_1_layer_dnn_grow_complexity_regularized/weighted_subnetwork_0/strided_slice/stack_2"
  attr {
    key: "Index"
    value {
      type: DT_INT32
    }
  }
  attr {
    key: "T"
    value {
      type: DT_INT32
    }
  }
  attr {
    key: "_output_shapes"
    value {
      list {
        shape {
        }
      }
    }
  }
  attr {
    key: "begin_mask"
    value {
      i: 0
    }
  }
  attr {
    key: "ellipsis_mask"
    value {
      i: 0
    }
  }
  attr {
    key: "end_mask"
    value {
      i: 0
    }
  }
  attr {
    key: "new_axis_mask"
    value {
      i: 0
    }
  }
  attr {
    key: "shrink_axis_mask"
    value {
      i: 1
    }
  }
}
node {
  name: "adanet/iteration_0/ensemble_t0_1_layer_dnn_grow_complexity_regularized/weighted_subnetwork_0/logits/mixture_weight/Initializer/Const"
  op: "Const"
  attr {
    key: "_class"
    value {
      list {
        s: "loc:@adanet/iteration_0/ensemble_t0_1_layer_dnn_grow_complexity_regularized/weighted_subnetwork_0/logits/mixture_weight"
      }
    }
  }
  attr {
    key: "_output_shapes"
    value {
      list {
        shape {
        }
      }
    }
  }
  attr {
    key: "dtype"
    value {
      type: DT_FLOAT
    }
  }
  attr {
    key: "value"
    value {
      tensor {
        dtype: DT_FLOAT
        tensor_shape {
        }
        float_val: 1.0
      }
    }
  }
}
node {
  name: "adanet/iteration_0/ensemble_t0_1_layer_dnn_grow_complexity_regularized/weighted_subnetwork_0/logits/mixture_weight"
  op: "VariableV2"
  attr {
    key: "_class"
    value {
      list {
        s: "loc:@adanet/iteration_0/ensemble_t0_1_layer_dnn_grow_complexity_regularized/weighted_subnetwork_0/logits/mixture_weight"
      }
    }
  }
  attr {
    key: "_output_shapes"
    value {
      list {
        shape {
        }
      }
    }
  }
  attr {
    key: "container"
    value {
      s: ""
    }
  }
  attr {
    key: "dtype"
    value {
      type: DT_FLOAT
    }
  }
  attr {
    key: "shape"
    value {
      shape {
      }
    }
  }
  attr {
    key: "shared_name"
    value {
      s: ""
    }
  }
}
node {
  name: "adanet/iteration_0/ensemble_t0_1_layer_dnn_grow_complexity_regularized/weighted_subnetwork_0/logits/mixture_weight/Assign"
  op: "Assign"
  input: "adanet/iteration_0/ensemble_t0_1_layer_dnn_grow_complexity_regularized/weighted_subnetwork_0/logits/mixture_weight"
  input: "adanet/iteration_0/ensemble_t0_1_layer_dnn_grow_complexity_regularized/weighted_subnetwork_0/logits/mixture_weight/Initializer/Const"
  attr {
    key: "T"
    value {
      type: DT_FLOAT
    }
  }
  attr {
    key: "_class"
    value {
      list {
        s: "loc:@adanet/iteration_0/ensemble_t0_1_layer_dnn_grow_complexity_regularized/weighted_subnetwork_0/logits/mixture_weight"
      }
    }
  }
  attr {
    key: "_output_shapes"
    value {
      list {
        shape {
        }
      }
    }
  }
  attr {
    key: "use_locking"
    value {
      b: true
    }
  }
  attr {
    key: "validate_shape"
    value {
      b: true
    }
  }
}
node {
  name: "adanet/iteration_0/ensemble_t0_1_layer_dnn_grow_complexity_regularized/weighted_subnetwork_0/logits/mixture_weight/read"
  op: "Identity"
  input: "adanet/iteration_0/ensemble_t0_1_layer_dnn_grow_complexity_regularized/weighted_subnetwork_0/logits/mixture_weight"
  attr {
    key: "T"
    value {
      type: DT_FLOAT
    }
  }
  attr {
    key: "_class"
    value {
      list {
        s: "loc:@adanet/iteration_0/ensemble_t0_1_layer_dnn_grow_complexity_regularized/weighted_subnetwork_0/logits/mixture_weight"
      }
    }
  }
  attr {
    key: "_output_shapes"
    value {
      list {
        shape {
        }
      }
    }
  }
}
node {
  name: "adanet/iteration_0/ensemble_t0_1_layer_dnn_grow_complexity_regularized/weighted_subnetwork_0/logits/Mul"
  op: "Mul"
  input: "adanet/iteration_0/subnetwork_t0_1_layer_dnn/dense_1/BiasAdd"
  input: "adanet/iteration_0/ensemble_t0_1_layer_dnn_grow_complexity_regularized/weighted_subnetwork_0/logits/mixture_weight/read"
  attr {
    key: "T"
    value {
      type: DT_FLOAT
    }
  }
  attr {
    key: "_output_shapes"
    value {
      list {
        shape {
          dim {
            size: -1
          }
          dim {
            size: 10
          }
        }
      }
    }
  }
}
node {
  name: "adanet/iteration_0/ensemble_t0_1_layer_dnn_grow_complexity_regularized/bias/Initializer/zeros"
  op: "Const"
  attr {
    key: "_class"
    value {
      list {
        s: "loc:@adanet/iteration_0/ensemble_t0_1_layer_dnn_grow_complexity_regularized/bias"
      }
    }
  }
  attr {
    key: "_output_shapes"
    value {
      list {
        shape {
          dim {
            size: 10
          }
        }
      }
    }
  }
  attr {
    key: "dtype"
    value {
      type: DT_FLOAT
    }
  }
  attr {
    key: "value"
    value {
      tensor {
        dtype: DT_FLOAT
        tensor_shape {
          dim {
            size: 10
          }
        }
        float_val: 0.0
      }
    }
  }
}
node {
  name: "adanet/iteration_0/ensemble_t0_1_layer_dnn_grow_complexity_regularized/bias"
  op: "VariableV2"
  attr {
    key: "_class"
    value {
      list {
        s: "loc:@adanet/iteration_0/ensemble_t0_1_layer_dnn_grow_complexity_regularized/bias"
      }
    }
  }
  attr {
    key: "_output_shapes"
    value {
      list {
        shape {
          dim {
            size: 10
          }
        }
      }
    }
  }
  attr {
    key: "container"
    value {
      s: ""
    }
  }
  attr {
    key: "dtype"
    value {
      type: DT_FLOAT
    }
  }
  attr {
    key: "shape"
    value {
      shape {
        dim {
          size: 10
        }
      }
    }
  }
  attr {
    key: "shared_name"
    value {
      s: ""
    }
  }
}
node {
  name: "adanet/iteration_0/ensemble_t0_1_layer_dnn_grow_complexity_regularized/bias/Assign"
  op: "Assign"
  input: "adanet/iteration_0/ensemble_t0_1_layer_dnn_grow_complexity_regularized/bias"
  input: "adanet/iteration_0/ensemble_t0_1_layer_dnn_grow_complexity_regularized/bias/Initializer/zeros"
  attr {
    key: "T"
    value {
      type: DT_FLOAT
    }
  }
  attr {
    key: "_class"
    value {
      list {
        s: "loc:@adanet/iteration_0/ensemble_t0_1_layer_dnn_grow_complexity_regularized/bias"
      }
    }
  }
  attr {
    key: "_output_shapes"
    value {
      list {
        shape {
          dim {
            size: 10
          }
        }
      }
    }
  }
  attr {
    key: "use_locking"
    value {
      b: true
    }
  }
  attr {
    key: "validate_shape"
    value {
      b: true
    }
  }
}
node {
  name: "adanet/iteration_0/ensemble_t0_1_layer_dnn_grow_complexity_regularized/bias/read"
  op: "Identity"
  input: "adanet/iteration_0/ensemble_t0_1_layer_dnn_grow_complexity_regularized/bias"
  attr {
    key: "T"
    value {
      type: DT_FLOAT
    }
  }
  attr {
    key: "_class"
    value {
      list {
        s: "loc:@adanet/iteration_0/ensemble_t0_1_layer_dnn_grow_complexity_regularized/bias"
      }
    }
  }
  attr {
    key: "_output_shapes"
    value {
      list {
        shape {
          dim {
            size: 10
          }
        }
      }
    }
  }
}
node {
  name: "adanet/iteration_0/ensemble_t0_1_layer_dnn_grow_complexity_regularized/logits/Add"
  op: "Add"
  input: "adanet/iteration_0/ensemble_t0_1_layer_dnn_grow_complexity_regularized/bias/read"
  input: "adanet/iteration_0/ensemble_t0_1_layer_dnn_grow_complexity_regularized/weighted_subnetwork_0/logits/Mul"
  attr {
    key: "T"
    value {
      type: DT_FLOAT
    }
  }
  attr {
    key: "_output_shapes"
    value {
      list {
        shape {
          dim {
            size: -1
          }
          dim {
            size: 10
          }
        }
      }
    }
  }
}
node {
  name: "adanet/iteration_0/ensemble_t0_1_layer_dnn_grow_complexity_regularized/norm/Abs"
  op: "Abs"
  input: "adanet/iteration_0/ensemble_t0_1_layer_dnn_grow_complexity_regularized/weighted_subnetwork_0/logits/mixture_weight/read"
  attr {
    key: "T"
    value {
      type: DT_FLOAT
    }
  }
  attr {
    key: "_output_shapes"
    value {
      list {
        shape {
        }
      }
    }
  }
}
node {
  name: "adanet/iteration_0/ensemble_t0_1_layer_dnn_grow_complexity_regularized/norm/Const"
  op: "Const"
  attr {
    key: "_output_shapes"
    value {
      list {
        shape {
          dim {
          }
        }
      }
    }
  }
  attr {
    key: "dtype"
    value {
      type: DT_INT32
    }
  }
  attr {
    key: "value"
    value {
      tensor {
        dtype: DT_INT32
        tensor_shape {
          dim {
          }
        }
      }
    }
  }
}
node {
  name: "adanet/iteration_0/ensemble_t0_1_layer_dnn_grow_complexity_regularized/norm/Sum"
  op: "Sum"
  input: "adanet/iteration_0/ensemble_t0_1_layer_dnn_grow_complexity_regularized/norm/Abs"
  input: "adanet/iteration_0/ensemble_t0_1_layer_dnn_grow_complexity_regularized/norm/Const"
  attr {
    key: "T"
    value {
      type: DT_FLOAT
    }
  }
  attr {
    key: "Tidx"
    value {
      type: DT_INT32
    }
  }
  attr {
    key: "_output_shapes"
    value {
      list {
        shape {
        }
      }
    }
  }
  attr {
    key: "keep_dims"
    value {
      b: true
    }
  }
}
node {
  name: "adanet/iteration_0/ensemble_t0_1_layer_dnn_grow_complexity_regularized/norm/Squeeze"
  op: "Squeeze"
  input: "adanet/iteration_0/ensemble_t0_1_layer_dnn_grow_complexity_regularized/norm/Sum"
  attr {
    key: "T"
    value {
      type: DT_FLOAT
    }
  }
  attr {
    key: "_output_shapes"
    value {
      list {
        shape {
        }
      }
    }
  }
  attr {
    key: "squeeze_dims"
    value {
      list {
      }
    }
  }
}
node {
  name: "adanet/iteration_0/ensemble_t0_1_layer_dnn_grow_complexity_regularized/add/x"
  op: "Const"
  attr {
    key: "_output_shapes"
    value {
      list {
        shape {
        }
      }
    }
  }
  attr {
    key: "dtype"
    value {
      type: DT_FLOAT
    }
  }
  attr {
    key: "value"
    value {
      tensor {
        dtype: DT_FLOAT
        tensor_shape {
        }
        float_val: 0.0
      }
    }
  }
}
node {
  name: "adanet/iteration_0/ensemble_t0_1_layer_dnn_grow_complexity_regularized/add"
  op: "Add"
…
    key: "_output_shapes"
    value {
      list {
        shape {
        }
      }
    }
  }
  attr {
    key: "use_locking"
    value {
      b: true
    }
  }
  attr {
    key: "validate_shape"
    value {
      b: true
    }
  }
}
node {
  name: "save/Assign_19"
  op: "Assign"
  input: "adanet/iteration_1/candidate_t1_2_layer_dnn_grow_complexity_regularized/adanet_loss"
  input: "save/RestoreV2:19"
  attr {
    key: "T"
    value {
      type: DT_FLOAT
    }
  }
  attr {
    key: "_class"
    value {
      list {
        s: "loc:@adanet/iteration_1/candidate_t1_2_layer_dnn_grow_complexity_regularized/adanet_loss"
      }
    }
  }
  attr {
    key: "_output_shapes"
    value {
      list {
        shape {
        }
      }
    }
  }
  attr {
    key: "use_locking"
    value {
      b: true
    }
  }
  attr {
    key: "validate_shape"
    value {
      b: true
    }
  }
}
node {
  name: "save/Assign_20"
  op: "Assign"
  input: "adanet/iteration_1/ensemble_t1_1_layer_dnn_grow_complexity_regularized/bias"
  input: "save/RestoreV2:20"
  attr {
    key: "T"
    value {
      type: DT_FLOAT
    }
  }
  attr {
    key: "_class"
    value {
      list {
        s: "loc:@adanet/iteration_1/ensemble_t1_1_layer_dnn_grow_complexity_regularized/bias"
      }
    }
  }
  attr {
    key: "_output_shapes"
    value {
      list {
        shape {
          dim {
            size: 10
          }
        }
      }
    }
  }
  attr {
    key: "use_locking"
    value {
      b: true
    }
  }
  attr {
    key: "validate_shape"
    value {
      b: true
    }
  }
}
node {
  name: "save/Assign_21"
  op: "Assign"
  input: "adanet/iteration_1/ensemble_t1_1_layer_dnn_grow_complexity_regularized/weighted_subnetwork_0/logits/mixture_weight"
  input: "save/RestoreV2:21"
  attr {
    key: "T"
    value {
      type: DT_FLOAT
    }
  }
  attr {
    key: "_class"
    value {
      list {
        s: "loc:@adanet/iteration_1/ensemble_t1_1_layer_dnn_grow_complexity_regularized/weighted_subnetwork_0/logits/mixture_weight"
      }
    }
  }
  attr {
    key: "_output_shapes"
    value {
      list {
        shape {
        }
      }
    }
  }
  attr {
    key: "use_locking"
    value {
      b: true
    }
  }
  attr {
    key: "validate_shape"
    value {
      b: true
    }
  }
}
node {
  name: "save/Assign_22"
  op: "Assign"
  input: "adanet/iteration_1/ensemble_t1_1_layer_dnn_grow_complexity_regularized/weighted_subnetwork_1/logits/mixture_weight"
  input: "save/RestoreV2:22"
  attr {
    key: "T"
    value {
      type: DT_FLOAT
    }
  }
  attr {
    key: "_class"
    value {
      list {
        s: "loc:@adanet/iteration_1/ensemble_t1_1_layer_dnn_grow_complexity_regularized/weighted_subnetwork_1/logits/mixture_weight"
      }
    }
  }
  attr {
    key: "_output_shapes"
    value {
      list {
        shape {
        }
      }
    }
  }
  attr {
    key: "use_locking"
    value {
      b: true
    }
  }
  attr {
    key: "validate_shape"
    value {
      b: true
    }
  }
}
node {
  name: "save/Assign_23"
  op: "Assign"
  input: "adanet/iteration_1/ensemble_t1_2_layer_dnn_grow_complexity_regularized/bias"
  input: "save/RestoreV2:23"
  attr {
    key: "T"
    value {
      type: DT_FLOAT
    }
  }
  attr {
    key: "_class"
    value {
      list {
        s: "loc:@adanet/iteration_1/ensemble_t1_2_layer_dnn_grow_complexity_regularized/bias"
      }
    }
  }
  attr {
    key: "_output_shapes"
    value {
      list {
        shape {
          dim {
            size: 10
          }
        }
      }
    }
  }
  attr {
    key: "use_locking"
    value {
      b: true
    }
  }
  attr {
    key: "validate_shape"
    value {
      b: true
    }
  }
}
node {
  name: "save/Assign_24"
  op: "Assign"
  input: "adanet/iteration_1/ensemble_t1_2_layer_dnn_grow_complexity_regularized/weighted_subnetwork_0/logits/mixture_weight"
  input: "save/RestoreV2:24"
  attr {
    key: "T"
    value {
      type: DT_FLOAT
    }
  }
  attr {
    key: "_class"
    value {
      list {
        s: "loc:@adanet/iteration_1/ensemble_t1_2_layer_dnn_grow_complexity_regularized/weighted_subnetwork_0/logits/mixture_weight"
      }
    }
  }
  attr {
    key: "_output_shapes"
    value {
      list {
        shape {
        }
      }
    }
  }
  attr {
    key: "use_locking"
    value {
      b: true
    }
  }
  attr {
    key: "validate_shape"
    value {
      b: true
    }
  }
}
node {
  name: "save/Assign_25"
  op: "Assign"
  input: "adanet/iteration_1/ensemble_t1_2_layer_dnn_grow_complexity_regularized/weighted_subnetwork_1/logits/mixture_weight"
  input: "save/RestoreV2:25"
  attr {
    key: "T"
    value {
      type: DT_FLOAT
    }
  }
  attr {
    key: "_class"
    value {
      list {
        s: "loc:@adanet/iteration_1/ensemble_t1_2_layer_dnn_grow_complexity_regularized/weighted_subnetwork_1/logits/mixture_weight"
      }
    }
  }
  attr {
    key: "_output_shapes"
    value {
      list {
        shape {
        }
      }
    }
  }
  attr {
    key: "use_locking"
    value {
      b: true
    }
  }
  attr {
    key: "validate_shape"
    value {
      b: true
    }
  }
}
node {
  name: "save/Assign_26"
  op: "Assign"
  input: "adanet/iteration_1/step"
  input: "save/RestoreV2:26"
  attr {
    key: "T"
    value {
      type: DT_INT64
    }
  }
  attr {
    key: "_class"
    value {
      list {
        s: "loc:@adanet/iteration_1/step"
      }
    }
  }
  attr {
    key: "_output_shapes"
    value {
      list {
        shape {
        }
      }
    }
  }
  attr {
    key: "use_locking"
    value {
      b: true
    }
  }
  attr {
    key: "validate_shape"
    value {
      b: true
    }
  }
}
node {
  name: "save/Assign_27"
  op: "Assign"
  input: "adanet/iteration_1/subnetwork_t1_1_layer_dnn/adanet/iteration_1/subnetwork_t1_1_layer_dnn/dense/bias/RMSProp"
  input: "save/RestoreV2:27"
  attr {
    key: "T"
    value {
      type: DT_FLOAT
    }
  }
  attr {
    key: "_class"
    value {
      list {
        s: "loc:@adanet/iteration_1/subnetwork_t1_1_layer_dnn/dense/bias"
      }
    }
  }
  attr {
    key: "_output_shapes"
    value {
      list {
        shape {
          dim {
            size: 32
          }
        }
      }
    }
  }
  attr {
    key: "use_locking"
    value {
      b: true
    }
  }
  attr {
    key: "validate_shape"
    value {
      b: true
    }
  }
}
node {
  name: "save/Assign_28"
  op: "Assign"
  input: "adanet/iteration_1/subnetwork_t1_1_layer_dnn/adanet/iteration_1/subnetwork_t1_1_layer_dnn/dense/bias/RMSProp_1"
  input: "save/RestoreV2:28"
  attr {
    key: "T"
    value {
      type: DT_FLOAT
    }
  }
  attr {
    key: "_class"
    value {
      list {
        s: "loc:@adanet/iteration_1/subnetwork_t1_1_layer_dnn/dense/bias"
      }
    }
  }
  attr {
    key: "_output_shapes"
    value {
      list {
        shape {
          dim {
            size: 32
          }
        }
      }
    }
  }
  attr {
    key: "use_locking"
    value {
      b: true
    }
  }
  attr {
    key: "validate_shape"
    value {
      b: true
    }
  }
}
node {
  name: "save/Assign_29"
  op: "Assign"
  input: "adanet/iteration_1/subnetwork_t1_1_layer_dnn/adanet/iteration_1/subnetwork_t1_1_layer_dnn/dense/kernel/RMSProp"
  input: "save/RestoreV2:29"
  attr {
    key: "T"
    value {
      type: DT_FLOAT
    }
  }
  attr {
    key: "_class"
    value {
      list {
        s: "loc:@adanet/iteration_1/subnetwork_t1_1_layer_dnn/dense/kernel"
      }
    }
  }
  attr {
    key: "_output_shapes"
    value {
      list {
        shape {
          dim {
            size: 784
          }
          dim {
            size: 32
          }
        }
      }
    }
  }
  attr {
    key: "use_locking"
    value {
      b: true
    }
  }
  attr {
    key: "validate_shape"
    value {
      b: true
    }
  }
}
node {
  name: "save/Assign_30"
  op: "Assign"
  input: "adanet/iteration_1/subnetwork_t1_1_layer_dnn/adanet/iteration_1/subnetwork_t1_1_layer_dnn/dense/kernel/RMSProp_1"
  input: "save/RestoreV2:30"
  attr {
    key: "T"
    value {
      type: DT_FLOAT
    }
  }
  attr {
    key: "_class"
    value {
      list {
        s: "loc:@adanet/iteration_1/subnetwork_t1_1_layer_dnn/dense/kernel"
      }
    }
  }
  attr {
    key: "_output_shapes"
    value {
      list {
        shape {
          dim {
            size: 784
          }
          dim {
            size: 32
          }
        }
      }
    }
  }
  attr {
    key: "use_locking"
    value {
      b: true
    }
  }
  attr {
    key: "validate_shape"
    value {
      b: true
    }
  }
}
node {
  name: "save/Assign_31"
  op: "Assign"
  input: "adanet/iteration_1/subnetwork_t1_1_layer_dnn/adanet/iteration_1/subnetwork_t1_1_layer_dnn/dense_1/bias/RMSProp"
  input: "save/RestoreV2:31"
  attr {
    key: "T"
    value {
      type: DT_FLOAT
    }
  }
  attr {
    key: "_class"
    value {
      list {
        s: "loc:@adanet/iteration_1/subnetwork_t1_1_layer_dnn/dense_1/bias"
      }
    }
  }
  attr {
    key: "_output_shapes"
    value {
      list {
        shape {
          dim {
            size: 10
          }
        }
      }
    }
  }
  attr {
    key: "use_locking"
    value {
      b: true
    }
  }
  attr {
    key: "validate_shape"
    value {
      b: true
    }
  }
}
node {
  name: "save/Assign_32"
  op: "Assign"
  input: "adanet/iteration_1/subnetwork_t1_1_layer_dnn/adanet/iteration_1/subnetwork_t1_1_layer_dnn/dense_1/bias/RMSProp_1"
  input: "save/RestoreV2:32"
  attr {
    key: "T"
    value {
      type: DT_FLOAT
    }
  }
  attr {
    key: "_class"
    value {
      list {
        s: "loc:@adanet/iteration_1/subnetwork_t1_1_layer_dnn/dense_1/bias"
      }
    }
  }
  attr {
    key: "_output_shapes"
    value {
      list {
        shape {
          dim {
            size: 10
          }
        }
      }
    }
  }
  attr {
    key: "use_locking"
    value {
      b: true
    }
  }
  attr {
    key: "validate_shape"
    value {
      b: true
    }
  }
}
node {
  name: "save/Assign_33"
  op: "Assign"
  input: "adanet/iteration_1/subnetwork_t1_1_layer_dnn/adanet/iteration_1/subnetwork_t1_1_layer_dnn/dense_1/kernel/RMSProp"
  input: "save/RestoreV2:33"
  attr {
    key: "T"
    value {
      type: DT_FLOAT
    }
  }
  attr {
    key: "_class"
    value {
      list {
        s: "loc:@adanet/iteration_1/subnetwork_t1_1_layer_dnn/dense_1/kernel"
      }
    }
  }
  attr {
    key: "_output_shapes"
    value {
      list {
        shape {
          dim {
            size: 32
          }
          dim {
            size: 10
          }
        }
      }
    }
  }
  attr {
    key: "use_locking"
    value {
      b: true
    }
  }
  attr {
    key: "validate_shape"
    value {
      b: true
    }
  }
}
node {
  name: "save/Assign_34"
  op: "Assign"
  input: "adanet/iteration_1/subnetwork_t1_1_layer_dnn/adanet/iteration_1/subnetwork_t1_1_layer_dnn/dense_1/kernel/RMSProp_1"
  input: "save/RestoreV2:34"
  attr {
    key: "T"
    value {
      type: DT_FLOAT
    }
  }
  attr {
    key: "_class"
    value {
      list {
        s: "loc:@adanet/iteration_1/subnetwork_t1_1_layer_dnn/dense_1/kernel"
      }
    }
  }
  attr {
    key: "_output_shapes"
    value {
      list {
        shape {
          dim {
            size: 32
          }
          dim {
            size: 10
          }
        }
      }
    }
  }
  attr {
    key: "use_locking"
    value {
      b: true
    }
  }
  attr {
    key: "validate_shape"
    value {
      b: true
    }
  }
}
node {
  name: "save/Assign_35"
  op: "Assign"
  input: "adanet/iteration_1/subnetwork_t1_1_layer_dnn/dense/bias"
  input: "save/RestoreV2:35"
  attr {
    key: "T"
    value {
      type: DT_FLOAT
    }
  }
  attr {
    key: "_class"
    value {
      list {
        s: "loc:@adanet/iteration_1/subnetwork_t1_1_layer_dnn/dense/bias"
      }
    }
  }
  attr {
    key: "_output_shapes"
    value {
      list {
        shape {
          dim {
            size: 32
          }
        }
      }
    }
  }
  attr {
    key: "use_locking"
    value {
      b: true
    }
  }
  attr {
    key: "validate_shape"
    value {
      b: true
    }
  }
}
node {
  name: "save/Assign_36"
  op: "Assign"
  input: "adanet/iteration_1/subnetwork_t1_1_layer_dnn/dense/kernel"
  input: "save/RestoreV2:36"
  attr {
    key: "T"
    value {
      type: DT_FLOAT
    }
  }
  attr {
    key: "_class"
    value {
      list {
        s: "loc:@adanet/iteration_1/subnetwork_t1_1_layer_dnn/dense/kernel"
      }
    }
  }
  attr {
    key: "_output_shapes"
    value {
      list {
        shape {
          dim {
            size: 784
          }
          dim {
            size: 32
          }
        }
      }
    }
  }
  attr {
    key: "use_locking"
    value {
      b: true
    }
  }
  attr {
    key: "validate_shape"
    value {
      b: true
    }
  }
}
node {
  name: "save/Assign_37"
  op: "Assign"
  input: "adanet/iteration_1/subnetwork_t1_1_layer_dnn/dense_1/bias"
  input: "save/RestoreV2:37"
  attr {
    key: "T"
    value {
      type: DT_FLOAT
    }
  }
  attr {
    key: "_class"
    value {
      list {
        s: "loc:@adanet/iteration_1/subnetwork_t1_1_layer_dnn/dense_1/bias"
      }
    }
  }
  attr {
    key: "_output_shapes"
    value {
      list {
        shape {
          dim {
            size: 10
          }
        }
      }
    }
  }
  attr {
    key: "use_locking"
    value {
      b: true
    }
  }
  attr {
    key: "validate_shape"
    value {
      b: true
    }
  }
}
node {
  name: "save/Assign_38"
  op: "Assign"
  input: "adanet/iteration_1/subnetwork_t1_1_layer_dnn/dense_1/kernel"
  input: "save/RestoreV2:38"
  attr {
    key: "T"
    value {
      type: DT_FLOAT
    }
  }
  attr {
    key: "_class"
    value {
      list {
        s: "loc:@adanet/iteration_1/subnetwork_t1_1_layer_dnn/dense_1/kernel"
      }
    }
  }
  attr {
    key: "_output_shapes"
    value {
      list {
        shape {
          dim {
            size: 32
          }
          dim {
            size: 10
          }
        }
      }
    }
  }
  attr {
    key: "use_locking"
    value {
      b: true
    }
  }
  attr {
    key: "validate_shape"
    value {
      b: true
    }
  }
}
node {
  name: "save/Assign_39"
  op: "Assign"
  input: "adanet/iteration_1/subnetwork_t1_2_layer_dnn/adanet/iteration_1/subnetwork_t1_2_layer_dnn/dense/bias/RMSProp"
  input: "save/RestoreV2:39"
  attr {
    key: "T"
    value {
      type: DT_FLOAT
    }
  }
  attr {
    key: "_class"
    value {
      list {
        s: "loc:@adanet/iteration_1/subnetwork_t1_2_layer_dnn/dense/bias"
      }
    }
  }
  attr {
    key: "_output_shapes"
    value {
      list {
        shape {
          dim {
            size: 32
          }
        }
      }
    }
  }
  attr {
    key: "use_locking"
    value {
      b: true
    }
  }
  attr {
    key: "validate_shape"
    value {
      b: true
    }
  }
}
node {
  name: "save/Assign_40"
  op: "Assign"
  input: "adanet/iteration_1/subnetwork_t1_2_layer_dnn/adanet/iteration_1/subnetwork_t1_2_layer_dnn/dense/bias/RMSProp_1"
  input: "save/RestoreV2:40"
  attr {
    key: "T"
    value {
      type: DT_FLOAT
    }
  }
  attr {
    key: "_class"
    value {
      list {
        s: "loc:@adanet/iteration_1/subnetwork_t1_2_layer_dnn/dense/bias"
      }
    }
  }
  attr {
    key: "_output_shapes"
    value {
      list {
        shape {
          dim {
            size: 32
          }
        }
      }
    }
  }
  attr {
    key: "use_locking"
    value {
      b: true
    }
  }
  attr {
    key: "validate_shape"
    value {
      b: true
    }
  }
}
node {
  name: "save/Assign_41"
  op: "Assign"
  input: "adanet/iteration_1/subnetwork_t1_2_layer_dnn/adanet/iteration_1/subnetwork_t1_2_layer_dnn/dense/kernel/RMSProp"
  input: "save/RestoreV2:41"
  attr {
    key: "T"
    value {
      type: DT_FLOAT
    }
  }
  attr {
    key: "_class"
    value {
      list {
        s: "loc:@adanet/iteration_1/subnetwork_t1_2_layer_dnn/dense/kernel"
      }
    }
  }
  attr {
    key: "_output_shapes"
    value {
      list {
        shape {
          dim {
            size: 784
          }
          dim {
            size: 32
          }
        }
      }
    }
  }
  attr {
    key: "use_locking"
    value {
      b: true
    }
  }
  attr {
    key: "validate_shape"
    value {
      b: true
    }
  }
}
node {
  name: "save/Assign_42"
  op: "Assign"
  input: "adanet/iteration_1/subnetwork_t1_2_layer_dnn/adanet/iteration_1/subnetwork_t1_2_layer_dnn/dense/kernel/RMSProp_1"
  input: "save/RestoreV2:42"
  attr {
    key: "T"
    value {
      type: DT_FLOAT
    }
  }
  attr {
    key: "_class"
    value {
      list {
        s: "loc:@adanet/iteration_1/subnetwork_t1_2_layer_dnn/dense/kernel"
      }
    }
  }
  attr {
    key: "_output_shapes"
    value {
      list {
        shape {
          dim {
            size: 784
          }
          dim {
            size: 32
          }
        }
      }
    }
  }
  attr {
    key: "use_locking"
    value {
      b: true
    }
  }
  attr {
    key: "validate_shape"
    value {
      b: true
    }
  }
}
node {
  name: "save/Assign_43"
  op: "Assign"
  input: "adanet/iteration_1/subnetwork_t1_2_layer_dnn/adanet/iteration_1/subnetwork_t1_2_layer_dnn/dense_1/bias/RMSProp"
  input: "save/RestoreV2:43"
  attr {
    key: "T"
    value {
      type: DT_FLOAT
    }
  }
  attr {
    key: "_class"
    value {
      list {
        s: "loc:@adanet/iteration_1/subnetwork_t1_2_layer_dnn/dense_1/bias"
      }
    }
  }
  attr {
    key: "_output_shapes"
    value {
      list {
        shape {
          dim {
            size: 32
          }
        }
      }
    }
  }
  attr {
    key: "use_locking"
    value {
      b: true
    }
  }
  attr {
    key: "validate_shape"
    value {
      b: true
    }
  }
}
node {
  name: "save/Assign_44"
  op: "Assign"
  input: "adanet/iteration_1/subnetwork_t1_2_layer_dnn/adanet/iteration_1/subnetwork_t1_2_layer_dnn/dense_1/bias/RMSProp_1"
  input: "save/RestoreV2:44"
  attr {
    key: "T"
    value {
      type: DT_FLOAT
    }
  }
  attr {
    key: "_class"
    value {
      list {
        s: "loc:@adanet/iteration_1/subnetwork_t1_2_layer_dnn/dense_1/bias"
      }
    }
  }
  attr {
    key: "_output_shapes"
    value {
      list {
        shape {
          dim {
            size: 32
          }
        }
      }
    }
  }
  attr {
    key: "use_locking"
    value {
      b: true
    }
  }
  attr {
    key: "validate_shape"
    value {
      b: true
    }
  }
}
node {
  name: "save/Assign_45"
  op: "Assign"
  input: "adanet/iteration_1/subnetwork_t1_2_layer_dnn/adanet/iteration_1/subnetwork_t1_2_layer_dnn/dense_1/kernel/RMSProp"
  input: "save/RestoreV2:45"
  attr {
    key: "T"
    value {
      type: DT_FLOAT
    }
  }
  attr {
    key: "_class"
    value {
      list {
        s: "loc:@adanet/iteration_1/subnetwork_t1_2_layer_dnn/dense_1/kernel"
      }
    }
  }
  attr {
    key: "_output_shapes"
    value {
      list {
        shape {
          dim {
            size: 32
          }
          dim {
            size: 32
          }
        }
      }
    }
  }
  attr {
    key: "use_locking"
    value {
      b: true
    }
  }
  attr {
    key: "validate_shape"
    value {
      b: true
    }
  }
}
node {
  name: "save/Assign_46"
  op: "Assign"
  input: "adanet/iteration_1/subnetwork_t1_2_layer_dnn/adanet/iteration_1/subnetwork_t1_2_layer_dnn/dense_1/kernel/RMSProp_1"
  input: "save/RestoreV2:46"
  attr {
    key: "T"
    value {
      type: DT_FLOAT
    }
  }
  attr {
    key: "_class"
    value {
      list {
        s: "loc:@adanet/iteration_1/subnetwork_t1_2_layer_dnn/dense_1/kernel"
      }
    }
  }
  attr {
    key: "_output_shapes"
    value {
      list {
        shape {
          dim {
            size: 32
          }
          dim {
            size: 32
          }
        }
      }
    }
  }
  attr {
    key: "use_locking"
    value {
      b: true
    }
  }
  attr {
    key: "validate_shape"
    value {
      b: true
    }
  }
}
node {
  name: "save/Assign_47"
  op: "Assign"
  input: "adanet/iteration_1/subnetwork_t1_2_layer_dnn/adanet/iteration_1/subnetwork_t1_2_layer_dnn/dense_2/bias/RMSProp"
  input: "save/RestoreV2:47"
  attr {
    key: "T"
    value {
      type: DT_FLOAT
    }
  }
  attr {
    key: "_class"
    value {
      list {
        s: "loc:@adanet/iteration_1/subnetwork_t1_2_layer_dnn/dense_2/bias"
      }
    }
  }
  attr {
    key: "_output_shapes"
    value {
      list {
        shape {
          dim {
            size: 10
          }
        }
      }
    }
  }
  attr {
    key: "use_locking"
    value {
      b: true
    }
  }
  attr {
    key: "validate_shape"
    value {
      b: true
    }
  }
}
node {
  name: "save/Assign_48"
  op: "Assign"
  input: "adanet/iteration_1/subnetwork_t1_2_layer_dnn/adanet/iteration_1/subnetwork_t1_2_layer_dnn/dense_2/bias/RMSProp_1"
  input: "save/RestoreV2:48"
  attr {
    key: "T"
    value {
      type: DT_FLOAT
    }
  }
  attr {
    key: "_class"
    value {
      list {
        s: "loc:@adanet/iteration_1/subnetwork_t1_2_layer_dnn/dense_2/bias"
      }
    }
  }
  attr {
    key: "_output_shapes"
    value {
      list {
        shape {
          dim {
            size: 10
          }
        }
      }
    }
  }
  attr {
    key: "use_locking"
    value {
      b: true
    }
  }
  attr {
    key: "validate_shape"
    value {
      b: true
    }
  }
}
node {
  name: "save/Assign_49"
  op: "Assign"
  input: "adanet/iteration_1/subnetwork_t1_2_layer_dnn/adanet/iteration_1/subnetwork_t1_2_layer_dnn/dense_2/kernel/RMSProp"
  input: "save/RestoreV2:49"
  attr {
    key: "T"
    value {
      type: DT_FLOAT
    }
  }
  attr {
    key: "_class"
    value {
      list {
        s: "loc:@adanet/iteration_1/subnetwork_t1_2_layer_dnn/dense_2/kernel"
      }
    }
  }
  attr {
    key: "_output_shapes"
    value {
      list {
        shape {
          dim {
            size: 32
          }
          dim {
            size: 10
          }
        }
      }
    }
  }
  attr {
    key: "use_locking"
    value {
      b: true
    }
  }
  attr {
    key: "validate_shape"
    value {
      b: true
    }
  }
}
node {
  name: "save/Assign_50"
  op: "Assign"
  input: "adanet/iteration_1/subnetwork_t1_2_layer_dnn/adanet/iteration_1/subnetwork_t1_2_layer_dnn/dense_2/kernel/RMSProp_1"
  input: "save/RestoreV2:50"
  attr {
    key: "T"
    value {
      type: DT_FLOAT
    }
  }
  attr {
    key: "_class"
    value {
      list {
        s: "loc:@adanet/iteration_1/subnetwork_t1_2_layer_dnn/dense_2/kernel"
      }
    }
  }
  attr {
    key: "_output_shapes"
    value {
      list {
        shape {
          dim {
            size: 32
          }
          dim {
            size: 10
          }
        }
      }
    }
  }
  attr {
    key: "use_locking"
    value {
      b: true
    }
  }
  attr {
    key: "validate_shape"
    value {
      b: true
    }
  }
}
node {
  name: "save/Assign_51"
  op: "Assign"
  input: "adanet/iteration_1/subnetwork_t1_2_layer_dnn/dense/bias"
  input: "save/RestoreV2:51"
  attr {
    key: "T"
    value {
      type: DT_FLOAT
    }
  }
  attr {
    key: "_class"
    value {
      list {
        s: "loc:@adanet/iteration_1/subnetwork_t1_2_layer_dnn/dense/bias"
      }
    }
  }
  attr {
    key: "_output_shapes"
    value {
      list {
        shape {
          dim {
            size: 32
          }
        }
      }
    }
  }
  attr {
    key: "use_locking"
    value {
      b: true
    }
  }
  attr {
    key: "validate_shape"
    value {
      b: true
    }
  }
}
node {
  name: "save/Assign_52"
  op: "Assign"
  input: "adanet/iteration_1/subnetwork_t1_2_layer_dnn/dense/kernel"
  input: "save/RestoreV2:52"
  attr {
    key: "T"
    value {
      type: DT_FLOAT
    }
  }
  attr {
    key: "_class"
    value {
      list {
        s: "loc:@adanet/iteration_1/subnetwork_t1_2_layer_dnn/dense/kernel"
      }
    }
  }
  attr {
    key: "_output_shapes"
    value {
      list {
        shape {
          dim {
            size: 784
          }
          dim {
            size: 32
          }
        }
      }
    }
  }
  attr {
    key: "use_locking"
    value {
      b: true
    }
  }
  attr {
    key: "validate_shape"
    value {
      b: true
    }
  }
}
node {
  name: "save/Assign_53"
  op: "Assign"
  input: "adanet/iteration_1/subnetwork_t1_2_layer_dnn/dense_1/bias"
  input: "save/RestoreV2:53"
  attr {
    key: "T"
    value {
      type: DT_FLOAT
    }
  }
  attr {
    key: "_class"
    value {
      list {
        s: "loc:@adanet/iteration_1/subnetwork_t1_2_layer_dnn/dense_1/bias"
      }
    }
  }
  attr {
    key: "_output_shapes"
    value {
      list {
        shape {
          dim {
            size: 32
          }
        }
      }
    }
  }
  attr {
    key: "use_locking"
    value {
      b: true
    }
  }
  attr {
    key: "validate_shape"
    value {
      b: true
    }
  }
}
node {
  name: "save/Assign_54"
  op: "Assign"
  input: "adanet/iteration_1/subnetwork_t1_2_layer_dnn/dense_1/kernel"
  input: "save/RestoreV2:54"
  attr {
    key: "T"
    value {
      type: DT_FLOAT
    }
  }
  attr {
    key: "_class"
    value {
      list {
        s: "loc:@adanet/iteration_1/subnetwork_t1_2_layer_dnn/dense_1/kernel"
      }
    }
  }
  attr {
    key: "_output_shapes"
    value {
      list {
        shape {
          dim {
            size: 32
          }
          dim {
            size: 32
          }
        }
      }
    }
  }
  attr {
    key: "use_locking"
    value {
      b: true
    }
  }
  attr {
    key: "validate_shape"
    value {
      b: true
    }
  }
}
node {
  name: "save/Assign_55"
  op: "Assign"
  input: "adanet/iteration_1/subnetwork_t1_2_layer_dnn/dense_2/bias"
  input: "save/RestoreV2:55"
  attr {
    key: "T"
    value {
      type: DT_FLOAT
    }
  }
  attr {
    key: "_class"
    value {
      list {
        s: "loc:@adanet/iteration_1/subnetwork_t1_2_layer_dnn/dense_2/bias"
      }
    }
  }
  attr {
    key: "_output_shapes"
    value {
      list {
        shape {
          dim {
            size: 10
          }
        }
      }
    }
  }
  attr {
    key: "use_locking"
    value {
      b: true
    }
  }
  attr {
    key: "validate_shape"
    value {
      b: true
    }
  }
}
node {
  name: "save/Assign_56"
  op: "Assign"
  input: "adanet/iteration_1/subnetwork_t1_2_layer_dnn/dense_2/kernel"
  input: "save/RestoreV2:56"
  attr {
    key: "T"
    value {
      type: DT_FLOAT
    }
  }
  attr {
    key: "_class"
    value {
      list {
        s: "loc:@adanet/iteration_1/subnetwork_t1_2_layer_dnn/dense_2/kernel"
      }
    }
  }
  attr {
    key: "_output_shapes"
    value {
      list {
        shape {
          dim {
            size: 32
          }
          dim {
            size: 10
          }
        }
      }
    }
  }
  attr {
    key: "use_locking"
    value {
      b: true
    }
  }
  attr {
    key: "validate_shape"
    value {
      b: true
    }
  }
}
node {
  name: "save/Assign_57"
  op: "Assign"
  input: "adanet/iteration_1/train_op/is_over/is_over_var_template/is_over_var"
  input: "save/RestoreV2:57"
  attr {
    key: "T"
    value {
      type: DT_BOOL
    }
  }
  attr {
    key: "_class"
    value {
      list {
        s: "loc:@adanet/iteration_1/train_op/is_over/is_over_var_template/is_over_var"
      }
    }
  }
  attr {
    key: "_output_shapes"
    value {
      list {
        shape {
        }
      }
    }
  }
  attr {
    key: "use_locking"
    value {
      b: true
    }
  }
  attr {
    key: "validate_shape"
    value {
      b: true
    }
  }
}
node {
  name: "save/Assign_58"
  op: "Assign"
  input: "current_iteration"
  input: "save/RestoreV2:58"
  attr {
    key: "T"
    value {
      type: DT_INT64
    }
  }
  attr {
    key: "_class"
    value {
      list {
        s: "loc:@current_iteration"
      }
    }
  }
  attr {
    key: "_output_shapes"
    value {
      list {
        shape {
        }
      }
    }
  }
  attr {
    key: "use_locking"
    value {
      b: true
    }
  }
  attr {
    key: "validate_shape"
    value {
      b: true
    }
  }
}
node {
  name: "save/Assign_59"
  op: "Assign"
  input: "global_step"
  input: "save/RestoreV2:59"
  attr {
    key: "T"
    value {
      type: DT_INT64
    }
  }
  attr {
    key: "_class"
    value {
      list {
        s: "loc:@global_step"
      }
    }
  }
  attr {
    key: "_output_shapes"
    value {
      list {
        shape {
        }
      }
    }
  }
  attr {
    key: "use_locking"
    value {
      b: true
    }
  }
  attr {
    key: "validate_shape"
    value {
      b: true
    }
  }
}
node {
  name: "save/restore_shard"
  op: "NoOp"
  input: "^save/Assign"
  input: "^save/Assign_1"
  input: "^save/Assign_10"
  input: "^save/Assign_11"
  input: "^save/Assign_12"
  input: "^save/Assign_13"
  input: "^save/Assign_14"
  input: "^save/Assign_15"
  input: "^save/Assign_16"
  input: "^save/Assign_17"
  input: "^save/Assign_18"
  input: "^save/Assign_19"
  input: "^save/Assign_2"
  input: "^save/Assign_20"
  input: "^save/Assign_21"
  input: "^save/Assign_22"
  input: "^save/Assign_23"
  input: "^save/Assign_24"
  input: "^save/Assign_25"
  input: "^save/Assign_26"
  input: "^save/Assign_27"
  input: "^save/Assign_28"
  input: "^save/Assign_29"
  input: "^save/Assign_3"
  input: "^save/Assign_30"
  input: "^save/Assign_31"
  input: "^save/Assign_32"
  input: "^save/Assign_33"
  input: "^save/Assign_34"
  input: "^save/Assign_35"
  input: "^save/Assign_36"
  input: "^save/Assign_37"
  input: "^save/Assign_38"
  input: "^save/Assign_39"
  input: "^save/Assign_4"
  input: "^save/Assign_40"
  input: "^save/Assign_41"
  input: "^save/Assign_42"
  input: "^save/Assign_43"
  input: "^save/Assign_44"
  input: "^save/Assign_45"
  input: "^save/Assign_46"
  input: "^save/Assign_47"
  input: "^save/Assign_48"
  input: "^save/Assign_49"
  input: "^save/Assign_5"
  input: "^save/Assign_50"
  input: "^save/Assign_51"
  input: "^save/Assign_52"
  input: "^save/Assign_53"
  input: "^save/Assign_54"
  input: "^save/Assign_55"
  input: "^save/Assign_56"
  input: "^save/Assign_57"
  input: "^save/Assign_58"
  input: "^save/Assign_59"
  input: "^save/Assign_6"
  input: "^save/Assign_7"
  input: "^save/Assign_8"
  input: "^save/Assign_9"
}
node {
  name: "save/restore_all"
  op: "NoOp"
  input: "^save/restore_shard"
}
library {
  function {
    signature {
      name: "Dataset_map_preprocess_image_5677"
      input_arg {
        name: "arg0"
        type: DT_FLOAT
      }
      input_arg {
        name: "arg1_0"
        type: DT_INT32
      }
      output_arg {
        name: "reshape"
        type: DT_FLOAT
      }
      output_arg {
        name: "arg1"
        type: DT_INT32
      }
      description: "Wrapper for passing nested structures to and from tf.data functions."
    }
    node_def {
      name: "truediv/y"
      op: "Const"
      device: "/device:CPU:0"
      attr {
        key: "dtype"
        value {
          type: DT_FLOAT
        }
      }
      attr {
        key: "value"
        value {
          tensor {
            dtype: DT_FLOAT
            tensor_shape {
            }
            float_val: 255.0
          }
        }
      }
    }
    node_def {
      name: "truediv"
      op: "RealDiv"
      input: "arg0"
      input: "truediv/y:output:0"
      device: "/device:CPU:0"
      attr {
        key: "T"
        value {
          type: DT_FLOAT
        }
      }
    }
    node_def {
      name: "Reshape/shape"
      op: "Const"
      device: "/device:CPU:0"
      attr {
        key: "dtype"
        value {
          type: DT_INT32
        }
      }
      attr {
        key: "value"
        value {
          tensor {
            dtype: DT_INT32
            tensor_shape {
              dim {
                size: 3
              }
            }
            tensor_content: "\034\000\000\000\034\000\000\000\001\000\000\000"
          }
        }
      }
    }
    node_def {
      name: "Reshape"
      op: "Reshape"
      input: "truediv:z:0"
      input: "Reshape/shape:output:0"
      device: "/device:CPU:0"
      attr {
        key: "T"
        value {
          type: DT_FLOAT
        }
      }
      attr {
        key: "Tshape"
        value {
          type: DT_INT32
        }
      }
    }
    ret {
      key: "arg1"
      value: "arg1_0"
    }
    ret {
      key: "reshape"
      value: "Reshape:output:0"
    }
  }
  function {
    signature {
      name: "Dataset_from_generator_get_iterator_id_fn_5652"
      input_arg {
        name: "arg0"
        type: DT_INT32
      }
      output_arg {
        name: "pyfunc"
        type: DT_INT64
      }
      description: "Wrapper for passing nested structures to and from tf.data functions."
      is_stateful: true
    }
    node_def {
      name: "PyFunc"
      op: "PyFunc"
      device: "/device:CPU:0"
      attr {
        key: "Tin"
        value {
          list {
          }
        }
      }
      attr {
        key: "Tout"
        value {
          list {
            type: DT_INT64
          }
        }
      }
      attr {
        key: "token"
        value {
          s: "pyfunc_12"
        }
      }
    }
    ret {
      key: "pyfunc"
      value: "PyFunc:output:0"
    }
  }
  function {
    signature {
      name: "Dataset_flat_map_flat_map_fn_5649"
      input_arg {
        name: "arg0"
        type: DT_INT32
      }
      output_arg {
        name: "generatordataset"
        type: DT_VARIANT
      }
      description: "Wrapper for passing nested structures to and from tf.data functions."
      is_stateful: true
    }
    node_def {
      name: "GeneratorDataset"
      op: "GeneratorDataset"
      input: "arg0"
      device: "/device:CPU:0"
      attr {
        key: "Tfinalize_func_args"
        value {
          list {
          }
        }
      }
      attr {
        key: "Tinit_func_args"
        value {
          list {
            type: DT_INT32
          }
        }
      }
      attr {
        key: "Tnext_func_args"
        value {
          list {
          }
        }
      }
      attr {
        key: "finalize_func"
        value {
          func {
            name: "Dataset_from_generator_finalize_fn_5661"
          }
        }
      }
      attr {
        key: "init_func"
        value {
          func {
            name: "Dataset_from_generator_get_iterator_id_fn_5652"
          }
        }
      }
      attr {
        key: "next_func"
        value {
          func {
            name: "Dataset_from_generator_generator_next_fn_5656"
          }
        }
      }
      attr {
        key: "output_shapes"
        value {
          list {
            shape {
              dim {
                size: 784
              }
            }
            shape {
            }
          }
        }
      }
      attr {
        key: "output_types"
        value {
          list {
            type: DT_FLOAT
            type: DT_INT32
          }
        }
      }
    }
    ret {
      key: "generatordataset"
      value: "GeneratorDataset:handle:0"
    }
  }
  function {
    signature {
      name: "Dataset_from_generator_finalize_fn_5661"
      input_arg {
        name: "arg0"
        type: DT_INT64
      }
      output_arg {
        name: "pyfunc"
        type: DT_INT64
      }
      description: "Wrapper for passing nested structures to and from tf.data functions."
      is_stateful: true
    }
    node_def {
      name: "PyFunc"
      op: "PyFunc"
      input: "arg0"
      device: "/device:CPU:0"
      attr {
        key: "Tin"
        value {
          list {
            type: DT_INT64
          }
        }
      }
      attr {
        key: "Tout"
        value {
          list {
            type: DT_INT64
          }
        }
      }
      attr {
        key: "token"
        value {
          s: "pyfunc_14"
        }
      }
    }
    ret {
      key: "pyfunc"
      value: "PyFunc:output:0"
    }
  }
  function {
    signature {
      name: "_make_dataset_KR9E5YonATk"
      output_arg {
        name: "modeldataset"
        type: DT_VARIANT
      }
      description: "Factory function for a dataset."
      is_stateful: true
    }
    node_def {
      name: "optimizations"
      op: "Const"
      device: "/device:CPU:0"
      attr {
        key: "dtype"
        value {
          type: DT_STRING
        }
      }
      attr {
        key: "value"
        value {
          tensor {
            dtype: DT_STRING
            tensor_shape {
              dim {
                size: 3
              }
            }
            string_val: "map_and_batch_fusion"
            string_val: "noop_elimination"
            string_val: "shuffle_and_repeat_fusion"
          }
        }
      }
    }
    node_def {
      name: "TensorDataset/tensors/component_0"
      op: "Const"
      device: "/device:CPU:0"
      attr {
        key: "dtype"
        value {
          type: DT_INT32
        }
      }
      attr {
        key: "value"
        value {
          tensor {
            dtype: DT_INT32
            tensor_shape {
            }
            int_val: 0
          }
        }
      }
    }
    node_def {
      name: "TensorDataset"
      op: "TensorDataset"
      input: "TensorDataset/tensors/component_0:output:0"
      device: "/device:CPU:0"
      attr {
        key: "Toutput_types"
        value {
          list {
            type: DT_INT32
          }
        }
      }
      attr {
        key: "output_shapes"
        value {
          list {
            shape {
            }
          }
        }
      }
    }
    node_def {
      name: "FlatMapDataset"
      op: "FlatMapDataset"
      input: "TensorDataset:handle:0"
      device: "/device:CPU:0"
      attr {
        key: "Targuments"
        value {
          list {
          }
        }
      }
      attr {
        key: "f"
        value {
          func {
            name: "Dataset_flat_map_flat_map_fn_5649"
          }
        }
      }
      attr {
        key: "output_shapes"
        value {
          list {
            shape {
              dim {
                size: 784
              }
            }
            shape {
            }
          }
        }
      }
      attr {
        key: "output_types"
        value {
          list {
            type: DT_FLOAT
            type: DT_INT32
          }
        }
      }
    }
    node_def {
      name: "ShuffleDataset/buffer_size"
      op: "Const"
      device: "/device:CPU:0"
      attr {
        key: "dtype"
        value {
          type: DT_INT64
        }
      }
      attr {
        key: "value"
        value {
          tensor {
            dtype: DT_INT64
            tensor_shape {
            }
            int64_val: 320
          }
        }
      }
    }
    node_def {
      name: "ShuffleDataset/seed"
      op: "Const"
      device: "/device:CPU:0"
      attr {
        key: "dtype"
        value {
          type: DT_INT64
        }
      }
      attr {
        key: "value"
        value {
          tensor {
            dtype: DT_INT64
            tensor_shape {
            }
            int64_val: 3
          }
        }
      }
    }
    node_def {
      name: "ShuffleDataset/seed_1"
      op: "Const"
      device: "/device:CPU:0"
      attr {
        key: "dtype"
        value {
          type: DT_INT64
        }
      }
      attr {
        key: "value"
        value {
          tensor {
            dtype: DT_INT64
            tensor_shape {
            }
            int64_val: 3
          }
        }
      }
    }
    node_def {
      name: "ShuffleDataset/seed2/Equal/y"
      op: "Const"
      device: "/device:CPU:0"
      attr {
        key: "dtype"
        value {
          type: DT_INT64
        }
      }
      attr {
        key: "value"
        value {
          tensor {
            dtype: DT_INT64
            tensor_shape {
            }
            int64_val: 0
          }
        }
      }
    }
    node_def {
      name: "ShuffleDataset/seed2/Equal"
      op: "Equal"
      input: "ShuffleDataset/seed_1:output:0"
      input: "ShuffleDataset/seed2/Equal/y:output:0"
      device: "/device:CPU:0"
      attr {
        key: "T"
        value {
          type: DT_INT64
        }
      }
    }
    node_def {
      name: "ShuffleDataset/seed2/Const"
      op: "Const"
      device: "/device:CPU:0"
      attr {
        key: "dtype"
        value {
          type: DT_INT64
        }
      }
      attr {
        key: "value"
        value {
          tensor {
            dtype: DT_INT64
            tensor_shape {
            }
            int64_val: 3
          }
        }
      }
    }
    node_def {
      name: "ShuffleDataset/seed2/Equal_1/y"
      op: "Const"
      device: "/device:CPU:0"
      attr {
        key: "dtype"
        value {
          type: DT_INT64
        }
      }
      attr {
        key: "value"
        value {
          tensor {
            dtype: DT_INT64
            tensor_shape {
            }
            int64_val: 0
          }
        }
      }
    }
    node_def {
      name: "ShuffleDataset/seed2/Equal_1"
      op: "Equal"
      input: "ShuffleDataset/seed2/Const:output:0"
      input: "ShuffleDataset/seed2/Equal_1/y:output:0"
      device: "/device:CPU:0"
      attr {
        key: "T"
        value {
          type: DT_INT64
        }
      }
    }
    node_def {
      name: "ShuffleDataset/seed2/LogicalAnd"
      op: "LogicalAnd"
      input: "ShuffleDataset/seed2/Equal:z:0"
      input: "ShuffleDataset/seed2/Equal_1:z:0"
      device: "/device:CPU:0"
    }
    node_def {
      name: "ShuffleDataset/seed2/Const_1"
      op: "Const"
      device: "/device:CPU:0"
      attr {
        key: "dtype"
        value {
          type: DT_INT64
        }
      }
      attr {
        key: "value"
        value {
          tensor {
            dtype: DT_INT64
            tensor_shape {
            }
            int64_val: 2147483647
          }
        }
      }
    }
    node_def {
      name: "ShuffleDataset/seed2/Const_2"
      op: "Const"
      device: "/device:CPU:0"
      attr {
        key: "dtype"
        value {
          type: DT_INT64
        }
      }
      attr {
        key: "value"
        value {
          tensor {
            dtype: DT_INT64
            tensor_shape {
            }
            int64_val: 3
          }
        }
      }
    }
    node_def {
      name: "ShuffleDataset/seed2"
      op: "Select"
      input: "ShuffleDataset/seed2/LogicalAnd:z:0"
      input: "ShuffleDataset/seed2/Const_1:output:0"
      input: "ShuffleDataset/seed2/Const_2:output:0"
      device: "/device:CPU:0"
      attr {
        key: "T"
        value {
          type: DT_INT64
        }
      }
    }
    node_def {
      name: "ShuffleDataset"
      op: "ShuffleDataset"
      input: "FlatMapDataset:handle:0"
      input: "ShuffleDataset/buffer_size:output:0"
      input: "ShuffleDataset/seed:output:0"
      input: "ShuffleDataset/seed2:output:0"
      device: "/device:CPU:0"
      attr {
        key: "output_shapes"
        value {
          list {
            shape {
              dim {
                size: 784
              }
            }
            shape {
            }
          }
        }
      }
      attr {
        key: "output_types"
        value {
          list {
            type: DT_FLOAT
            type: DT_INT32
          }
        }
      }
      attr {
        key: "reshuffle_each_iteration"
        value {
          b: true
        }
      }
    }
    node_def {
      name: "RepeatDataset/count"
      op: "Const"
      device: "/device:CPU:0"
      attr {
        key: "dtype"
        value {
          type: DT_INT64
        }
      }
      attr {
        key: "value"
        value {
          tensor {
            dtype: DT_INT64
            tensor_shape {
            }
            int64_val: -1
          }
        }
      }
    }
    node_def {
      name: "RepeatDataset"
      op: "RepeatDataset"
      input: "ShuffleDataset:handle:0"
      input: "RepeatDataset/count:output:0"
      device: "/device:CPU:0"
      attr {
        key: "output_shapes"
        value {
          list {
            shape {
              dim {
                size: 784
              }
            }
            shape {
            }
          }
        }
      }
      attr {
        key: "output_types"
        value {
          list {
            type: DT_FLOAT
            type: DT_INT32
          }
        }
      }
    }
    node_def {
      name: "MapDataset"
      op: "MapDataset"
      input: "RepeatDataset:handle:0"
      device: "/device:CPU:0"
      attr {
        key: "Targuments"
        value {
          list {
          }
        }
      }
      attr {
        key: "f"
        value {
          func {
            name: "Dataset_map_preprocess_image_5677"
          }
        }
      }
      attr {
        key: "output_shapes"
        value {
          list {
            shape {
              dim {
                size: 28
              }
              dim {
                size: 28
              }
              dim {
                size: 1
              }
            }
            shape {
            }
          }
        }
      }
      attr {
        key: "output_types"
        value {
          list {
            type: DT_FLOAT
            type: DT_INT32
          }
        }
      }
      attr {
        key: "preserve_cardinality"
        value {
          b: false
        }
      }
      attr {
        key: "use_inter_op_parallelism"
        value {
          b: true
        }
      }
    }
    node_def {
      name: "BatchDatasetV2/batch_size"
      op: "Const"
      device: "/device:CPU:0"
      attr {
        key: "dtype"
        value {
          type: DT_INT64
        }
      }
      attr {
        key: "value"
        value {
          tensor {
            dtype: DT_INT64
            tensor_shape {
            }
            int64_val: 32
          }
        }
      }
    }
    node_def {
      name: "BatchDatasetV2/drop_remainder"
      op: "Const"
      device: "/device:CPU:0"
      attr {
        key: "dtype"
        value {
          type: DT_BOOL
        }
      }
      attr {
        key: "value"
        value {
          tensor {
            dtype: DT_BOOL
            tensor_shape {
            }
            bool_val: false
          }
        }
      }
    }
    node_def {
      name: "BatchDatasetV2"
      op: "BatchDatasetV2"
      input: "MapDataset:handle:0"
      input: "BatchDatasetV2/batch_size:output:0"
      input: "BatchDatasetV2/drop_remainder:output:0"
      device: "/device:CPU:0"
      attr {
        key: "output_shapes"
        value {
          list {
            shape {
              dim {
                size: -1
              }
              dim {
                size: 28
              }
              dim {
                size: 28
              }
              dim {
                size: 1
              }
            }
            shape {
              dim {
                size: -1
              }
            }
          }
        }
      }
      attr {
        key: "output_types"
        value {
          list {
            type: DT_FLOAT
            type: DT_INT32
          }
        }
      }
    }
    node_def {
      name: "OptimizeDataset"
      op: "OptimizeDataset"
      input: "BatchDatasetV2:handle:0"
      input: "optimizations:output:0"
      device: "/device:CPU:0"
      attr {
        key: "output_shapes"
        value {
          list {
            shape {
              dim {
                size: -1
              }
              dim {
                size: 28
              }
              dim {
                size: 28
              }
              dim {
                size: 1
              }
            }
            shape {
              dim {
                size: -1
              }
            }
          }
        }
      }
      attr {
        key: "output_types"
        value {
          list {
            type: DT_FLOAT
            type: DT_INT32
          }
        }
      }
    }
    node_def {
      name: "ModelDataset"
      op: "ModelDataset"
      input: "OptimizeDataset:handle:0"
      device: "/device:CPU:0"
      attr {
        key: "output_shapes"
        value {
          list {
            shape {
              dim {
                size: -1
              }
              dim {
                size: 28
              }
              dim {
                size: 28
              }
              dim {
                size: 1
              }
            }
            shape {
              dim {
                size: -1
              }
            }
          }
        }
      }
      attr {
        key: "output_types"
        value {
          list {
            type: DT_FLOAT
            type: DT_INT32
          }
        }
      }
    }
    ret {
      key: "modeldataset"
      value: "ModelDataset:handle:0"
    }
  }
  function {
    signature {
      name: "Dataset_from_generator_generator_next_fn_5656"
      input_arg {
        name: "arg0"
        type: DT_INT64
      }
      output_arg {
        name: "pyfunc"
        type: DT_FLOAT
      }
      output_arg {
        name: "pyfunc_0"
        type: DT_INT32
      }
      description: "Wrapper for passing nested structures to and from tf.data functions."
      is_stateful: true
    }
    node_def {
      name: "PyFunc"
      op: "PyFunc"
      input: "arg0"
      device: "/device:CPU:0"
      attr {
        key: "Tin"
        value {
          list {
            type: DT_INT64
          }
        }
      }
      attr {
        key: "Tout"
        value {
          list {
            type: DT_FLOAT
            type: DT_INT32
          }
        }
      }
      attr {
        key: "token"
        value {
          s: "pyfunc_13"
        }
      }
    }
    ret {
      key: "pyfunc"
      value: "PyFunc:output:0"
    }
    ret {
      key: "pyfunc_0"
      value: "PyFunc:output:1"
    }
  }
}
versions {
  producer: 27
  min_consumer: 12
}
